{
  "nodes": [
    {
      "op": "null", 
      "name": "data", 
      "inputs": []
    }, 
    {
      "op": "null", 
      "name": "mobilenetv20_features_conv0_weight", 
      "attrs": {
        "__dtype__": "0", 
        "__lr_mult__": "1.0", 
        "__shape__": "(16, 3, 3, 3)", 
        "__storage_type__": "0", 
        "__wd_mult__": "1.0"
      }, 
      "inputs": []
    }, 
    {
      "op": "Convolution", 
      "name": "mobilenetv20_features_conv0_fwd", 
      "attrs": {
        "dilate": "(1, 1)", 
        "kernel": "(3, 3)", 
        "layout": "NCHW", 
        "no_bias": "True", 
        "num_filter": "16", 
        "num_group": "1", 
        "pad": "(1, 1)", 
        "stride": "(2, 2)"
      }, 
      "inputs": [[0, 0, 0], [1, 0, 0]]
    }, 
    {
      "op": "null", 
      "name": "mobilenetv20_features_batchnorm0_gamma", 
      "attrs": {
        "__dtype__": "0", 
        "__init__": "ones", 
        "__lr_mult__": "1.0", 
        "__shape__": "(16,)", 
        "__storage_type__": "0", 
        "__wd_mult__": "1.0"
      }, 
      "inputs": []
    }, 
    {
      "op": "null", 
      "name": "mobilenetv20_features_batchnorm0_beta", 
      "attrs": {
        "__dtype__": "0", 
        "__init__": "zeros", 
        "__lr_mult__": "1.0", 
        "__shape__": "(16,)", 
        "__storage_type__": "0", 
        "__wd_mult__": "1.0"
      }, 
      "inputs": []
    }, 
    {
      "op": "null", 
      "name": "mobilenetv20_features_batchnorm0_running_mean", 
      "attrs": {
        "__dtype__": "0", 
        "__init__": "zeros", 
        "__lr_mult__": "1.0", 
        "__shape__": "(16,)", 
        "__storage_type__": "0", 
        "__wd_mult__": "1.0"
      }, 
      "inputs": []
    }, 
    {
      "op": "null", 
      "name": "mobilenetv20_features_batchnorm0_running_var", 
      "attrs": {
        "__dtype__": "0", 
        "__init__": "ones", 
        "__lr_mult__": "1.0", 
        "__shape__": "(16,)", 
        "__storage_type__": "0", 
        "__wd_mult__": "1.0"
      }, 
      "inputs": []
    }, 
    {
      "op": "BatchNorm", 
      "name": "mobilenetv20_features_batchnorm0_fwd", 
      "attrs": {
        "axis": "1", 
        "eps": "1e-05", 
        "fix_gamma": "False", 
        "momentum": "0.9", 
        "use_global_stats": "False"
      }, 
      "inputs": [[2, 0, 0], [3, 0, 0], [4, 0, 0], [5, 0, 7], [6, 0, 7]]
    }, 
    {
      "op": "clip", 
      "name": "mobilenetv20_features_relu60_relu6", 
      "attrs": {
        "a_max": "6", 
        "a_min": "0"
      }, 
      "inputs": [[7, 0, 0]]
    }, 
    {
      "op": "null", 
      "name": "mobilenetv20_features_linearbottleneck0_conv0_weight", 
      "attrs": {
        "__dtype__": "0", 
        "__lr_mult__": "1.0", 
        "__shape__": "(16, 16, 1, 1)", 
        "__storage_type__": "0", 
        "__wd_mult__": "1.0"
      }, 
      "inputs": []
    }, 
    {
      "op": "Convolution", 
      "name": "mobilenetv20_features_linearbottleneck0_conv0_fwd", 
      "attrs": {
        "dilate": "(1, 1)", 
        "kernel": "(1, 1)", 
        "layout": "NCHW", 
        "no_bias": "True", 
        "num_filter": "16", 
        "num_group": "1", 
        "pad": "(0, 0)", 
        "stride": "(1, 1)"
      }, 
      "inputs": [[8, 0, 0], [9, 0, 0]]
    }, 
    {
      "op": "null", 
      "name": "mobilenetv20_features_linearbottleneck0_batchnorm0_gamma", 
      "attrs": {
        "__dtype__": "0", 
        "__init__": "ones", 
        "__lr_mult__": "1.0", 
        "__shape__": "(16,)", 
        "__storage_type__": "0", 
        "__wd_mult__": "1.0"
      }, 
      "inputs": []
    }, 
    {
      "op": "null", 
      "name": "mobilenetv20_features_linearbottleneck0_batchnorm0_beta", 
      "attrs": {
        "__dtype__": "0", 
        "__init__": "zeros", 
        "__lr_mult__": "1.0", 
        "__shape__": "(16,)", 
        "__storage_type__": "0", 
        "__wd_mult__": "1.0"
      }, 
      "inputs": []
    }, 
    {
      "op": "null", 
      "name": "mobilenetv20_features_linearbottleneck0_batchnorm0_running_mean", 
      "attrs": {
        "__dtype__": "0", 
        "__init__": "zeros", 
        "__lr_mult__": "1.0", 
        "__shape__": "(16,)", 
        "__storage_type__": "0", 
        "__wd_mult__": "1.0"
      }, 
      "inputs": []
    }, 
    {
      "op": "null", 
      "name": "mobilenetv20_features_linearbottleneck0_batchnorm0_running_var", 
      "attrs": {
        "__dtype__": "0", 
        "__init__": "ones", 
        "__lr_mult__": "1.0", 
        "__shape__": "(16,)", 
        "__storage_type__": "0", 
        "__wd_mult__": "1.0"
      }, 
      "inputs": []
    }, 
    {
      "op": "BatchNorm", 
      "name": "mobilenetv20_features_linearbottleneck0_batchnorm0_fwd", 
      "attrs": {
        "axis": "1", 
        "eps": "1e-05", 
        "fix_gamma": "False", 
        "momentum": "0.9", 
        "use_global_stats": "False"
      }, 
      "inputs": [[10, 0, 0], [11, 0, 0], [12, 0, 0], [13, 0, 7], [14, 0, 7]]
    }, 
    {
      "op": "clip", 
      "name": "mobilenetv20_features_linearbottleneck0_relu60_relu6", 
      "attrs": {
        "a_max": "6", 
        "a_min": "0"
      }, 
      "inputs": [[15, 0, 0]]
    }, 
    {
      "op": "null", 
      "name": "mobilenetv20_features_linearbottleneck0_conv1_weight", 
      "attrs": {
        "__dtype__": "0", 
        "__lr_mult__": "1.0", 
        "__shape__": "(16, 1, 3, 3)", 
        "__storage_type__": "0", 
        "__wd_mult__": "1.0"
      }, 
      "inputs": []
    }, 
    {
      "op": "Convolution", 
      "name": "mobilenetv20_features_linearbottleneck0_conv1_fwd", 
      "attrs": {
        "dilate": "(1, 1)", 
        "kernel": "(3, 3)", 
        "layout": "NCHW", 
        "no_bias": "True", 
        "num_filter": "16", 
        "num_group": "16", 
        "pad": "(1, 1)", 
        "stride": "(1, 1)"
      }, 
      "inputs": [[16, 0, 0], [17, 0, 0]]
    }, 
    {
      "op": "null", 
      "name": "mobilenetv20_features_linearbottleneck0_batchnorm1_gamma", 
      "attrs": {
        "__dtype__": "0", 
        "__init__": "ones", 
        "__lr_mult__": "1.0", 
        "__shape__": "(16,)", 
        "__storage_type__": "0", 
        "__wd_mult__": "1.0"
      }, 
      "inputs": []
    }, 
    {
      "op": "null", 
      "name": "mobilenetv20_features_linearbottleneck0_batchnorm1_beta", 
      "attrs": {
        "__dtype__": "0", 
        "__init__": "zeros", 
        "__lr_mult__": "1.0", 
        "__shape__": "(16,)", 
        "__storage_type__": "0", 
        "__wd_mult__": "1.0"
      }, 
      "inputs": []
    }, 
    {
      "op": "null", 
      "name": "mobilenetv20_features_linearbottleneck0_batchnorm1_running_mean", 
      "attrs": {
        "__dtype__": "0", 
        "__init__": "zeros", 
        "__lr_mult__": "1.0", 
        "__shape__": "(16,)", 
        "__storage_type__": "0", 
        "__wd_mult__": "1.0"
      }, 
      "inputs": []
    }, 
    {
      "op": "null", 
      "name": "mobilenetv20_features_linearbottleneck0_batchnorm1_running_var", 
      "attrs": {
        "__dtype__": "0", 
        "__init__": "ones", 
        "__lr_mult__": "1.0", 
        "__shape__": "(16,)", 
        "__storage_type__": "0", 
        "__wd_mult__": "1.0"
      }, 
      "inputs": []
    }, 
    {
      "op": "BatchNorm", 
      "name": "mobilenetv20_features_linearbottleneck0_batchnorm1_fwd", 
      "attrs": {
        "axis": "1", 
        "eps": "1e-05", 
        "fix_gamma": "False", 
        "momentum": "0.9", 
        "use_global_stats": "False"
      }, 
      "inputs": [[18, 0, 0], [19, 0, 0], [20, 0, 0], [21, 0, 7], [22, 0, 7]]
    }, 
    {
      "op": "clip", 
      "name": "mobilenetv20_features_linearbottleneck0_relu61_relu6", 
      "attrs": {
        "a_max": "6", 
        "a_min": "0"
      }, 
      "inputs": [[23, 0, 0]]
    }, 
    {
      "op": "null", 
      "name": "mobilenetv20_features_linearbottleneck0_conv2_weight", 
      "attrs": {
        "__dtype__": "0", 
        "__lr_mult__": "1.0", 
        "__shape__": "(8, 16, 1, 1)", 
        "__storage_type__": "0", 
        "__wd_mult__": "1.0"
      }, 
      "inputs": []
    }, 
    {
      "op": "Convolution", 
      "name": "mobilenetv20_features_linearbottleneck0_conv2_fwd", 
      "attrs": {
        "dilate": "(1, 1)", 
        "kernel": "(1, 1)", 
        "layout": "NCHW", 
        "no_bias": "True", 
        "num_filter": "8", 
        "num_group": "1", 
        "pad": "(0, 0)", 
        "stride": "(1, 1)"
      }, 
      "inputs": [[24, 0, 0], [25, 0, 0]]
    }, 
    {
      "op": "null", 
      "name": "mobilenetv20_features_linearbottleneck0_batchnorm2_gamma", 
      "attrs": {
        "__dtype__": "0", 
        "__init__": "ones", 
        "__lr_mult__": "1.0", 
        "__shape__": "(8,)", 
        "__storage_type__": "0", 
        "__wd_mult__": "1.0"
      }, 
      "inputs": []
    }, 
    {
      "op": "null", 
      "name": "mobilenetv20_features_linearbottleneck0_batchnorm2_beta", 
      "attrs": {
        "__dtype__": "0", 
        "__init__": "zeros", 
        "__lr_mult__": "1.0", 
        "__shape__": "(8,)", 
        "__storage_type__": "0", 
        "__wd_mult__": "1.0"
      }, 
      "inputs": []
    }, 
    {
      "op": "null", 
      "name": "mobilenetv20_features_linearbottleneck0_batchnorm2_running_mean", 
      "attrs": {
        "__dtype__": "0", 
        "__init__": "zeros", 
        "__lr_mult__": "1.0", 
        "__shape__": "(8,)", 
        "__storage_type__": "0", 
        "__wd_mult__": "1.0"
      }, 
      "inputs": []
    }, 
    {
      "op": "null", 
      "name": "mobilenetv20_features_linearbottleneck0_batchnorm2_running_var", 
      "attrs": {
        "__dtype__": "0", 
        "__init__": "ones", 
        "__lr_mult__": "1.0", 
        "__shape__": "(8,)", 
        "__storage_type__": "0", 
        "__wd_mult__": "1.0"
      }, 
      "inputs": []
    }, 
    {
      "op": "BatchNorm", 
      "name": "mobilenetv20_features_linearbottleneck0_batchnorm2_fwd", 
      "attrs": {
        "axis": "1", 
        "eps": "1e-05", 
        "fix_gamma": "False", 
        "momentum": "0.9", 
        "use_global_stats": "False"
      }, 
      "inputs": [[26, 0, 0], [27, 0, 0], [28, 0, 0], [29, 0, 7], [30, 0, 7]]
    }, 
    {
      "op": "null", 
      "name": "mobilenetv20_features_linearbottleneck1_conv0_weight", 
      "attrs": {
        "__dtype__": "0", 
        "__lr_mult__": "1.0", 
        "__shape__": "(48, 8, 1, 1)", 
        "__storage_type__": "0", 
        "__wd_mult__": "1.0"
      }, 
      "inputs": []
    }, 
    {
      "op": "Convolution", 
      "name": "mobilenetv20_features_linearbottleneck1_conv0_fwd", 
      "attrs": {
        "dilate": "(1, 1)", 
        "kernel": "(1, 1)", 
        "layout": "NCHW", 
        "no_bias": "True", 
        "num_filter": "48", 
        "num_group": "1", 
        "pad": "(0, 0)", 
        "stride": "(1, 1)"
      }, 
      "inputs": [[31, 0, 0], [32, 0, 0]]
    }, 
    {
      "op": "null", 
      "name": "mobilenetv20_features_linearbottleneck1_batchnorm0_gamma", 
      "attrs": {
        "__dtype__": "0", 
        "__init__": "ones", 
        "__lr_mult__": "1.0", 
        "__shape__": "(48,)", 
        "__storage_type__": "0", 
        "__wd_mult__": "1.0"
      }, 
      "inputs": []
    }, 
    {
      "op": "null", 
      "name": "mobilenetv20_features_linearbottleneck1_batchnorm0_beta", 
      "attrs": {
        "__dtype__": "0", 
        "__init__": "zeros", 
        "__lr_mult__": "1.0", 
        "__shape__": "(48,)", 
        "__storage_type__": "0", 
        "__wd_mult__": "1.0"
      }, 
      "inputs": []
    }, 
    {
      "op": "null", 
      "name": "mobilenetv20_features_linearbottleneck1_batchnorm0_running_mean", 
      "attrs": {
        "__dtype__": "0", 
        "__init__": "zeros", 
        "__lr_mult__": "1.0", 
        "__shape__": "(48,)", 
        "__storage_type__": "0", 
        "__wd_mult__": "1.0"
      }, 
      "inputs": []
    }, 
    {
      "op": "null", 
      "name": "mobilenetv20_features_linearbottleneck1_batchnorm0_running_var", 
      "attrs": {
        "__dtype__": "0", 
        "__init__": "ones", 
        "__lr_mult__": "1.0", 
        "__shape__": "(48,)", 
        "__storage_type__": "0", 
        "__wd_mult__": "1.0"
      }, 
      "inputs": []
    }, 
    {
      "op": "BatchNorm", 
      "name": "mobilenetv20_features_linearbottleneck1_batchnorm0_fwd", 
      "attrs": {
        "axis": "1", 
        "eps": "1e-05", 
        "fix_gamma": "False", 
        "momentum": "0.9", 
        "use_global_stats": "False"
      }, 
      "inputs": [[33, 0, 0], [34, 0, 0], [35, 0, 0], [36, 0, 7], [37, 0, 7]]
    }, 
    {
      "op": "clip", 
      "name": "mobilenetv20_features_linearbottleneck1_relu60_relu6", 
      "attrs": {
        "a_max": "6", 
        "a_min": "0"
      }, 
      "inputs": [[38, 0, 0]]
    }, 
    {
      "op": "null", 
      "name": "mobilenetv20_features_linearbottleneck1_conv1_weight", 
      "attrs": {
        "__dtype__": "0", 
        "__lr_mult__": "1.0", 
        "__shape__": "(48, 1, 3, 3)", 
        "__storage_type__": "0", 
        "__wd_mult__": "1.0"
      }, 
      "inputs": []
    }, 
    {
      "op": "Convolution", 
      "name": "mobilenetv20_features_linearbottleneck1_conv1_fwd", 
      "attrs": {
        "dilate": "(1, 1)", 
        "kernel": "(3, 3)", 
        "layout": "NCHW", 
        "no_bias": "True", 
        "num_filter": "48", 
        "num_group": "48", 
        "pad": "(1, 1)", 
        "stride": "(2, 2)"
      }, 
      "inputs": [[39, 0, 0], [40, 0, 0]]
    }, 
    {
      "op": "null", 
      "name": "mobilenetv20_features_linearbottleneck1_batchnorm1_gamma", 
      "attrs": {
        "__dtype__": "0", 
        "__init__": "ones", 
        "__lr_mult__": "1.0", 
        "__shape__": "(48,)", 
        "__storage_type__": "0", 
        "__wd_mult__": "1.0"
      }, 
      "inputs": []
    }, 
    {
      "op": "null", 
      "name": "mobilenetv20_features_linearbottleneck1_batchnorm1_beta", 
      "attrs": {
        "__dtype__": "0", 
        "__init__": "zeros", 
        "__lr_mult__": "1.0", 
        "__shape__": "(48,)", 
        "__storage_type__": "0", 
        "__wd_mult__": "1.0"
      }, 
      "inputs": []
    }, 
    {
      "op": "null", 
      "name": "mobilenetv20_features_linearbottleneck1_batchnorm1_running_mean", 
      "attrs": {
        "__dtype__": "0", 
        "__init__": "zeros", 
        "__lr_mult__": "1.0", 
        "__shape__": "(48,)", 
        "__storage_type__": "0", 
        "__wd_mult__": "1.0"
      }, 
      "inputs": []
    }, 
    {
      "op": "null", 
      "name": "mobilenetv20_features_linearbottleneck1_batchnorm1_running_var", 
      "attrs": {
        "__dtype__": "0", 
        "__init__": "ones", 
        "__lr_mult__": "1.0", 
        "__shape__": "(48,)", 
        "__storage_type__": "0", 
        "__wd_mult__": "1.0"
      }, 
      "inputs": []
    }, 
    {
      "op": "BatchNorm", 
      "name": "mobilenetv20_features_linearbottleneck1_batchnorm1_fwd", 
      "attrs": {
        "axis": "1", 
        "eps": "1e-05", 
        "fix_gamma": "False", 
        "momentum": "0.9", 
        "use_global_stats": "False"
      }, 
      "inputs": [[41, 0, 0], [42, 0, 0], [43, 0, 0], [44, 0, 7], [45, 0, 7]]
    }, 
    {
      "op": "clip", 
      "name": "mobilenetv20_features_linearbottleneck1_relu61_relu6", 
      "attrs": {
        "a_max": "6", 
        "a_min": "0"
      }, 
      "inputs": [[46, 0, 0]]
    }, 
    {
      "op": "null", 
      "name": "mobilenetv20_features_linearbottleneck1_conv2_weight", 
      "attrs": {
        "__dtype__": "0", 
        "__lr_mult__": "1.0", 
        "__shape__": "(12, 48, 1, 1)", 
        "__storage_type__": "0", 
        "__wd_mult__": "1.0"
      }, 
      "inputs": []
    }, 
    {
      "op": "Convolution", 
      "name": "mobilenetv20_features_linearbottleneck1_conv2_fwd", 
      "attrs": {
        "dilate": "(1, 1)", 
        "kernel": "(1, 1)", 
        "layout": "NCHW", 
        "no_bias": "True", 
        "num_filter": "12", 
        "num_group": "1", 
        "pad": "(0, 0)", 
        "stride": "(1, 1)"
      }, 
      "inputs": [[47, 0, 0], [48, 0, 0]]
    }, 
    {
      "op": "null", 
      "name": "mobilenetv20_features_linearbottleneck1_batchnorm2_gamma", 
      "attrs": {
        "__dtype__": "0", 
        "__init__": "ones", 
        "__lr_mult__": "1.0", 
        "__shape__": "(12,)", 
        "__storage_type__": "0", 
        "__wd_mult__": "1.0"
      }, 
      "inputs": []
    }, 
    {
      "op": "null", 
      "name": "mobilenetv20_features_linearbottleneck1_batchnorm2_beta", 
      "attrs": {
        "__dtype__": "0", 
        "__init__": "zeros", 
        "__lr_mult__": "1.0", 
        "__shape__": "(12,)", 
        "__storage_type__": "0", 
        "__wd_mult__": "1.0"
      }, 
      "inputs": []
    }, 
    {
      "op": "null", 
      "name": "mobilenetv20_features_linearbottleneck1_batchnorm2_running_mean", 
      "attrs": {
        "__dtype__": "0", 
        "__init__": "zeros", 
        "__lr_mult__": "1.0", 
        "__shape__": "(12,)", 
        "__storage_type__": "0", 
        "__wd_mult__": "1.0"
      }, 
      "inputs": []
    }, 
    {
      "op": "null", 
      "name": "mobilenetv20_features_linearbottleneck1_batchnorm2_running_var", 
      "attrs": {
        "__dtype__": "0", 
        "__init__": "ones", 
        "__lr_mult__": "1.0", 
        "__shape__": "(12,)", 
        "__storage_type__": "0", 
        "__wd_mult__": "1.0"
      }, 
      "inputs": []
    }, 
    {
      "op": "BatchNorm", 
      "name": "mobilenetv20_features_linearbottleneck1_batchnorm2_fwd", 
      "attrs": {
        "axis": "1", 
        "eps": "1e-05", 
        "fix_gamma": "False", 
        "momentum": "0.9", 
        "use_global_stats": "False"
      }, 
      "inputs": [[49, 0, 0], [50, 0, 0], [51, 0, 0], [52, 0, 7], [53, 0, 7]]
    }, 
    {
      "op": "null", 
      "name": "mobilenetv20_features_linearbottleneck2_conv0_weight", 
      "attrs": {
        "__dtype__": "0", 
        "__lr_mult__": "1.0", 
        "__shape__": "(72, 12, 1, 1)", 
        "__storage_type__": "0", 
        "__wd_mult__": "1.0"
      }, 
      "inputs": []
    }, 
    {
      "op": "Convolution", 
      "name": "mobilenetv20_features_linearbottleneck2_conv0_fwd", 
      "attrs": {
        "dilate": "(1, 1)", 
        "kernel": "(1, 1)", 
        "layout": "NCHW", 
        "no_bias": "True", 
        "num_filter": "72", 
        "num_group": "1", 
        "pad": "(0, 0)", 
        "stride": "(1, 1)"
      }, 
      "inputs": [[54, 0, 0], [55, 0, 0]]
    }, 
    {
      "op": "null", 
      "name": "mobilenetv20_features_linearbottleneck2_batchnorm0_gamma", 
      "attrs": {
        "__dtype__": "0", 
        "__init__": "ones", 
        "__lr_mult__": "1.0", 
        "__shape__": "(72,)", 
        "__storage_type__": "0", 
        "__wd_mult__": "1.0"
      }, 
      "inputs": []
    }, 
    {
      "op": "null", 
      "name": "mobilenetv20_features_linearbottleneck2_batchnorm0_beta", 
      "attrs": {
        "__dtype__": "0", 
        "__init__": "zeros", 
        "__lr_mult__": "1.0", 
        "__shape__": "(72,)", 
        "__storage_type__": "0", 
        "__wd_mult__": "1.0"
      }, 
      "inputs": []
    }, 
    {
      "op": "null", 
      "name": "mobilenetv20_features_linearbottleneck2_batchnorm0_running_mean", 
      "attrs": {
        "__dtype__": "0", 
        "__init__": "zeros", 
        "__lr_mult__": "1.0", 
        "__shape__": "(72,)", 
        "__storage_type__": "0", 
        "__wd_mult__": "1.0"
      }, 
      "inputs": []
    }, 
    {
      "op": "null", 
      "name": "mobilenetv20_features_linearbottleneck2_batchnorm0_running_var", 
      "attrs": {
        "__dtype__": "0", 
        "__init__": "ones", 
        "__lr_mult__": "1.0", 
        "__shape__": "(72,)", 
        "__storage_type__": "0", 
        "__wd_mult__": "1.0"
      }, 
      "inputs": []
    }, 
    {
      "op": "BatchNorm", 
      "name": "mobilenetv20_features_linearbottleneck2_batchnorm0_fwd", 
      "attrs": {
        "axis": "1", 
        "eps": "1e-05", 
        "fix_gamma": "False", 
        "momentum": "0.9", 
        "use_global_stats": "False"
      }, 
      "inputs": [[56, 0, 0], [57, 0, 0], [58, 0, 0], [59, 0, 7], [60, 0, 7]]
    }, 
    {
      "op": "clip", 
      "name": "mobilenetv20_features_linearbottleneck2_relu60_relu6", 
      "attrs": {
        "a_max": "6", 
        "a_min": "0"
      }, 
      "inputs": [[61, 0, 0]]
    }, 
    {
      "op": "null", 
      "name": "mobilenetv20_features_linearbottleneck2_conv1_weight", 
      "attrs": {
        "__dtype__": "0", 
        "__lr_mult__": "1.0", 
        "__shape__": "(72, 1, 3, 3)", 
        "__storage_type__": "0", 
        "__wd_mult__": "1.0"
      }, 
      "inputs": []
    }, 
    {
      "op": "Convolution", 
      "name": "mobilenetv20_features_linearbottleneck2_conv1_fwd", 
      "attrs": {
        "dilate": "(1, 1)", 
        "kernel": "(3, 3)", 
        "layout": "NCHW", 
        "no_bias": "True", 
        "num_filter": "72", 
        "num_group": "72", 
        "pad": "(1, 1)", 
        "stride": "(1, 1)"
      }, 
      "inputs": [[62, 0, 0], [63, 0, 0]]
    }, 
    {
      "op": "null", 
      "name": "mobilenetv20_features_linearbottleneck2_batchnorm1_gamma", 
      "attrs": {
        "__dtype__": "0", 
        "__init__": "ones", 
        "__lr_mult__": "1.0", 
        "__shape__": "(72,)", 
        "__storage_type__": "0", 
        "__wd_mult__": "1.0"
      }, 
      "inputs": []
    }, 
    {
      "op": "null", 
      "name": "mobilenetv20_features_linearbottleneck2_batchnorm1_beta", 
      "attrs": {
        "__dtype__": "0", 
        "__init__": "zeros", 
        "__lr_mult__": "1.0", 
        "__shape__": "(72,)", 
        "__storage_type__": "0", 
        "__wd_mult__": "1.0"
      }, 
      "inputs": []
    }, 
    {
      "op": "null", 
      "name": "mobilenetv20_features_linearbottleneck2_batchnorm1_running_mean", 
      "attrs": {
        "__dtype__": "0", 
        "__init__": "zeros", 
        "__lr_mult__": "1.0", 
        "__shape__": "(72,)", 
        "__storage_type__": "0", 
        "__wd_mult__": "1.0"
      }, 
      "inputs": []
    }, 
    {
      "op": "null", 
      "name": "mobilenetv20_features_linearbottleneck2_batchnorm1_running_var", 
      "attrs": {
        "__dtype__": "0", 
        "__init__": "ones", 
        "__lr_mult__": "1.0", 
        "__shape__": "(72,)", 
        "__storage_type__": "0", 
        "__wd_mult__": "1.0"
      }, 
      "inputs": []
    }, 
    {
      "op": "BatchNorm", 
      "name": "mobilenetv20_features_linearbottleneck2_batchnorm1_fwd", 
      "attrs": {
        "axis": "1", 
        "eps": "1e-05", 
        "fix_gamma": "False", 
        "momentum": "0.9", 
        "use_global_stats": "False"
      }, 
      "inputs": [[64, 0, 0], [65, 0, 0], [66, 0, 0], [67, 0, 7], [68, 0, 7]]
    }, 
    {
      "op": "clip", 
      "name": "mobilenetv20_features_linearbottleneck2_relu61_relu6", 
      "attrs": {
        "a_max": "6", 
        "a_min": "0"
      }, 
      "inputs": [[69, 0, 0]]
    }, 
    {
      "op": "null", 
      "name": "mobilenetv20_features_linearbottleneck2_conv2_weight", 
      "attrs": {
        "__dtype__": "0", 
        "__lr_mult__": "1.0", 
        "__shape__": "(12, 72, 1, 1)", 
        "__storage_type__": "0", 
        "__wd_mult__": "1.0"
      }, 
      "inputs": []
    }, 
    {
      "op": "Convolution", 
      "name": "mobilenetv20_features_linearbottleneck2_conv2_fwd", 
      "attrs": {
        "dilate": "(1, 1)", 
        "kernel": "(1, 1)", 
        "layout": "NCHW", 
        "no_bias": "True", 
        "num_filter": "12", 
        "num_group": "1", 
        "pad": "(0, 0)", 
        "stride": "(1, 1)"
      }, 
      "inputs": [[70, 0, 0], [71, 0, 0]]
    }, 
    {
      "op": "null", 
      "name": "mobilenetv20_features_linearbottleneck2_batchnorm2_gamma", 
      "attrs": {
        "__dtype__": "0", 
        "__init__": "ones", 
        "__lr_mult__": "1.0", 
        "__shape__": "(12,)", 
        "__storage_type__": "0", 
        "__wd_mult__": "1.0"
      }, 
      "inputs": []
    }, 
    {
      "op": "null", 
      "name": "mobilenetv20_features_linearbottleneck2_batchnorm2_beta", 
      "attrs": {
        "__dtype__": "0", 
        "__init__": "zeros", 
        "__lr_mult__": "1.0", 
        "__shape__": "(12,)", 
        "__storage_type__": "0", 
        "__wd_mult__": "1.0"
      }, 
      "inputs": []
    }, 
    {
      "op": "null", 
      "name": "mobilenetv20_features_linearbottleneck2_batchnorm2_running_mean", 
      "attrs": {
        "__dtype__": "0", 
        "__init__": "zeros", 
        "__lr_mult__": "1.0", 
        "__shape__": "(12,)", 
        "__storage_type__": "0", 
        "__wd_mult__": "1.0"
      }, 
      "inputs": []
    }, 
    {
      "op": "null", 
      "name": "mobilenetv20_features_linearbottleneck2_batchnorm2_running_var", 
      "attrs": {
        "__dtype__": "0", 
        "__init__": "ones", 
        "__lr_mult__": "1.0", 
        "__shape__": "(12,)", 
        "__storage_type__": "0", 
        "__wd_mult__": "1.0"
      }, 
      "inputs": []
    }, 
    {
      "op": "BatchNorm", 
      "name": "mobilenetv20_features_linearbottleneck2_batchnorm2_fwd", 
      "attrs": {
        "axis": "1", 
        "eps": "1e-05", 
        "fix_gamma": "False", 
        "momentum": "0.9", 
        "use_global_stats": "False"
      }, 
      "inputs": [[72, 0, 0], [73, 0, 0], [74, 0, 0], [75, 0, 7], [76, 0, 7]]
    }, 
    {
      "op": "elemwise_add", 
      "name": "mobilenetv20_features_linearbottleneck2_elemwise_add0", 
      "inputs": [[77, 0, 0], [54, 0, 0]]
    }, 
    {
      "op": "null", 
      "name": "mobilenetv20_features_linearbottleneck3_conv0_weight", 
      "attrs": {
        "__dtype__": "0", 
        "__lr_mult__": "1.0", 
        "__shape__": "(72, 12, 1, 1)", 
        "__storage_type__": "0", 
        "__wd_mult__": "1.0"
      }, 
      "inputs": []
    }, 
    {
      "op": "Convolution", 
      "name": "mobilenetv20_features_linearbottleneck3_conv0_fwd", 
      "attrs": {
        "dilate": "(1, 1)", 
        "kernel": "(1, 1)", 
        "layout": "NCHW", 
        "no_bias": "True", 
        "num_filter": "72", 
        "num_group": "1", 
        "pad": "(0, 0)", 
        "stride": "(1, 1)"
      }, 
      "inputs": [[78, 0, 0], [79, 0, 0]]
    }, 
    {
      "op": "null", 
      "name": "mobilenetv20_features_linearbottleneck3_batchnorm0_gamma", 
      "attrs": {
        "__dtype__": "0", 
        "__init__": "ones", 
        "__lr_mult__": "1.0", 
        "__shape__": "(72,)", 
        "__storage_type__": "0", 
        "__wd_mult__": "1.0"
      }, 
      "inputs": []
    }, 
    {
      "op": "null", 
      "name": "mobilenetv20_features_linearbottleneck3_batchnorm0_beta", 
      "attrs": {
        "__dtype__": "0", 
        "__init__": "zeros", 
        "__lr_mult__": "1.0", 
        "__shape__": "(72,)", 
        "__storage_type__": "0", 
        "__wd_mult__": "1.0"
      }, 
      "inputs": []
    }, 
    {
      "op": "null", 
      "name": "mobilenetv20_features_linearbottleneck3_batchnorm0_running_mean", 
      "attrs": {
        "__dtype__": "0", 
        "__init__": "zeros", 
        "__lr_mult__": "1.0", 
        "__shape__": "(72,)", 
        "__storage_type__": "0", 
        "__wd_mult__": "1.0"
      }, 
      "inputs": []
    }, 
    {
      "op": "null", 
      "name": "mobilenetv20_features_linearbottleneck3_batchnorm0_running_var", 
      "attrs": {
        "__dtype__": "0", 
        "__init__": "ones", 
        "__lr_mult__": "1.0", 
        "__shape__": "(72,)", 
        "__storage_type__": "0", 
        "__wd_mult__": "1.0"
      }, 
      "inputs": []
    }, 
    {
      "op": "BatchNorm", 
      "name": "mobilenetv20_features_linearbottleneck3_batchnorm0_fwd", 
      "attrs": {
        "axis": "1", 
        "eps": "1e-05", 
        "fix_gamma": "False", 
        "momentum": "0.9", 
        "use_global_stats": "False"
      }, 
      "inputs": [[80, 0, 0], [81, 0, 0], [82, 0, 0], [83, 0, 7], [84, 0, 7]]
    }, 
    {
      "op": "clip", 
      "name": "mobilenetv20_features_linearbottleneck3_relu60_relu6", 
      "attrs": {
        "a_max": "6", 
        "a_min": "0"
      }, 
      "inputs": [[85, 0, 0]]
    }, 
    {
      "op": "null", 
      "name": "mobilenetv20_features_linearbottleneck3_conv1_weight", 
      "attrs": {
        "__dtype__": "0", 
        "__lr_mult__": "1.0", 
        "__shape__": "(72, 1, 3, 3)", 
        "__storage_type__": "0", 
        "__wd_mult__": "1.0"
      }, 
      "inputs": []
    }, 
    {
      "op": "Convolution", 
      "name": "mobilenetv20_features_linearbottleneck3_conv1_fwd", 
      "attrs": {
        "dilate": "(1, 1)", 
        "kernel": "(3, 3)", 
        "layout": "NCHW", 
        "no_bias": "True", 
        "num_filter": "72", 
        "num_group": "72", 
        "pad": "(1, 1)", 
        "stride": "(2, 2)"
      }, 
      "inputs": [[86, 0, 0], [87, 0, 0]]
    }, 
    {
      "op": "null", 
      "name": "mobilenetv20_features_linearbottleneck3_batchnorm1_gamma", 
      "attrs": {
        "__dtype__": "0", 
        "__init__": "ones", 
        "__lr_mult__": "1.0", 
        "__shape__": "(72,)", 
        "__storage_type__": "0", 
        "__wd_mult__": "1.0"
      }, 
      "inputs": []
    }, 
    {
      "op": "null", 
      "name": "mobilenetv20_features_linearbottleneck3_batchnorm1_beta", 
      "attrs": {
        "__dtype__": "0", 
        "__init__": "zeros", 
        "__lr_mult__": "1.0", 
        "__shape__": "(72,)", 
        "__storage_type__": "0", 
        "__wd_mult__": "1.0"
      }, 
      "inputs": []
    }, 
    {
      "op": "null", 
      "name": "mobilenetv20_features_linearbottleneck3_batchnorm1_running_mean", 
      "attrs": {
        "__dtype__": "0", 
        "__init__": "zeros", 
        "__lr_mult__": "1.0", 
        "__shape__": "(72,)", 
        "__storage_type__": "0", 
        "__wd_mult__": "1.0"
      }, 
      "inputs": []
    }, 
    {
      "op": "null", 
      "name": "mobilenetv20_features_linearbottleneck3_batchnorm1_running_var", 
      "attrs": {
        "__dtype__": "0", 
        "__init__": "ones", 
        "__lr_mult__": "1.0", 
        "__shape__": "(72,)", 
        "__storage_type__": "0", 
        "__wd_mult__": "1.0"
      }, 
      "inputs": []
    }, 
    {
      "op": "BatchNorm", 
      "name": "mobilenetv20_features_linearbottleneck3_batchnorm1_fwd", 
      "attrs": {
        "axis": "1", 
        "eps": "1e-05", 
        "fix_gamma": "False", 
        "momentum": "0.9", 
        "use_global_stats": "False"
      }, 
      "inputs": [[88, 0, 0], [89, 0, 0], [90, 0, 0], [91, 0, 7], [92, 0, 7]]
    }, 
    {
      "op": "clip", 
      "name": "mobilenetv20_features_linearbottleneck3_relu61_relu6", 
      "attrs": {
        "a_max": "6", 
        "a_min": "0"
      }, 
      "inputs": [[93, 0, 0]]
    }, 
    {
      "op": "null", 
      "name": "mobilenetv20_features_linearbottleneck3_conv2_weight", 
      "attrs": {
        "__dtype__": "0", 
        "__lr_mult__": "1.0", 
        "__shape__": "(16, 72, 1, 1)", 
        "__storage_type__": "0", 
        "__wd_mult__": "1.0"
      }, 
      "inputs": []
    }, 
    {
      "op": "Convolution", 
      "name": "mobilenetv20_features_linearbottleneck3_conv2_fwd", 
      "attrs": {
        "dilate": "(1, 1)", 
        "kernel": "(1, 1)", 
        "layout": "NCHW", 
        "no_bias": "True", 
        "num_filter": "16", 
        "num_group": "1", 
        "pad": "(0, 0)", 
        "stride": "(1, 1)"
      }, 
      "inputs": [[94, 0, 0], [95, 0, 0]]
    }, 
    {
      "op": "null", 
      "name": "mobilenetv20_features_linearbottleneck3_batchnorm2_gamma", 
      "attrs": {
        "__dtype__": "0", 
        "__init__": "ones", 
        "__lr_mult__": "1.0", 
        "__shape__": "(16,)", 
        "__storage_type__": "0", 
        "__wd_mult__": "1.0"
      }, 
      "inputs": []
    }, 
    {
      "op": "null", 
      "name": "mobilenetv20_features_linearbottleneck3_batchnorm2_beta", 
      "attrs": {
        "__dtype__": "0", 
        "__init__": "zeros", 
        "__lr_mult__": "1.0", 
        "__shape__": "(16,)", 
        "__storage_type__": "0", 
        "__wd_mult__": "1.0"
      }, 
      "inputs": []
    }, 
    {
      "op": "null", 
      "name": "mobilenetv20_features_linearbottleneck3_batchnorm2_running_mean", 
      "attrs": {
        "__dtype__": "0", 
        "__init__": "zeros", 
        "__lr_mult__": "1.0", 
        "__shape__": "(16,)", 
        "__storage_type__": "0", 
        "__wd_mult__": "1.0"
      }, 
      "inputs": []
    }, 
    {
      "op": "null", 
      "name": "mobilenetv20_features_linearbottleneck3_batchnorm2_running_var", 
      "attrs": {
        "__dtype__": "0", 
        "__init__": "ones", 
        "__lr_mult__": "1.0", 
        "__shape__": "(16,)", 
        "__storage_type__": "0", 
        "__wd_mult__": "1.0"
      }, 
      "inputs": []
    }, 
    {
      "op": "BatchNorm", 
      "name": "mobilenetv20_features_linearbottleneck3_batchnorm2_fwd", 
      "attrs": {
        "axis": "1", 
        "eps": "1e-05", 
        "fix_gamma": "False", 
        "momentum": "0.9", 
        "use_global_stats": "False"
      }, 
      "inputs": [[96, 0, 0], [97, 0, 0], [98, 0, 0], [99, 0, 7], [100, 0, 7]]
    }, 
    {
      "op": "null", 
      "name": "mobilenetv20_features_linearbottleneck4_conv0_weight", 
      "attrs": {
        "__dtype__": "0", 
        "__lr_mult__": "1.0", 
        "__shape__": "(96, 16, 1, 1)", 
        "__storage_type__": "0", 
        "__wd_mult__": "1.0"
      }, 
      "inputs": []
    }, 
    {
      "op": "Convolution", 
      "name": "mobilenetv20_features_linearbottleneck4_conv0_fwd", 
      "attrs": {
        "dilate": "(1, 1)", 
        "kernel": "(1, 1)", 
        "layout": "NCHW", 
        "no_bias": "True", 
        "num_filter": "96", 
        "num_group": "1", 
        "pad": "(0, 0)", 
        "stride": "(1, 1)"
      }, 
      "inputs": [[101, 0, 0], [102, 0, 0]]
    }, 
    {
      "op": "null", 
      "name": "mobilenetv20_features_linearbottleneck4_batchnorm0_gamma", 
      "attrs": {
        "__dtype__": "0", 
        "__init__": "ones", 
        "__lr_mult__": "1.0", 
        "__shape__": "(96,)", 
        "__storage_type__": "0", 
        "__wd_mult__": "1.0"
      }, 
      "inputs": []
    }, 
    {
      "op": "null", 
      "name": "mobilenetv20_features_linearbottleneck4_batchnorm0_beta", 
      "attrs": {
        "__dtype__": "0", 
        "__init__": "zeros", 
        "__lr_mult__": "1.0", 
        "__shape__": "(96,)", 
        "__storage_type__": "0", 
        "__wd_mult__": "1.0"
      }, 
      "inputs": []
    }, 
    {
      "op": "null", 
      "name": "mobilenetv20_features_linearbottleneck4_batchnorm0_running_mean", 
      "attrs": {
        "__dtype__": "0", 
        "__init__": "zeros", 
        "__lr_mult__": "1.0", 
        "__shape__": "(96,)", 
        "__storage_type__": "0", 
        "__wd_mult__": "1.0"
      }, 
      "inputs": []
    }, 
    {
      "op": "null", 
      "name": "mobilenetv20_features_linearbottleneck4_batchnorm0_running_var", 
      "attrs": {
        "__dtype__": "0", 
        "__init__": "ones", 
        "__lr_mult__": "1.0", 
        "__shape__": "(96,)", 
        "__storage_type__": "0", 
        "__wd_mult__": "1.0"
      }, 
      "inputs": []
    }, 
    {
      "op": "BatchNorm", 
      "name": "mobilenetv20_features_linearbottleneck4_batchnorm0_fwd", 
      "attrs": {
        "axis": "1", 
        "eps": "1e-05", 
        "fix_gamma": "False", 
        "momentum": "0.9", 
        "use_global_stats": "False"
      }, 
      "inputs": [[103, 0, 0], [104, 0, 0], [105, 0, 0], [106, 0, 7], [107, 0, 7]]
    }, 
    {
      "op": "clip", 
      "name": "mobilenetv20_features_linearbottleneck4_relu60_relu6", 
      "attrs": {
        "a_max": "6", 
        "a_min": "0"
      }, 
      "inputs": [[108, 0, 0]]
    }, 
    {
      "op": "null", 
      "name": "mobilenetv20_features_linearbottleneck4_conv1_weight", 
      "attrs": {
        "__dtype__": "0", 
        "__lr_mult__": "1.0", 
        "__shape__": "(96, 1, 3, 3)", 
        "__storage_type__": "0", 
        "__wd_mult__": "1.0"
      }, 
      "inputs": []
    }, 
    {
      "op": "Convolution", 
      "name": "mobilenetv20_features_linearbottleneck4_conv1_fwd", 
      "attrs": {
        "dilate": "(1, 1)", 
        "kernel": "(3, 3)", 
        "layout": "NCHW", 
        "no_bias": "True", 
        "num_filter": "96", 
        "num_group": "96", 
        "pad": "(1, 1)", 
        "stride": "(1, 1)"
      }, 
      "inputs": [[109, 0, 0], [110, 0, 0]]
    }, 
    {
      "op": "null", 
      "name": "mobilenetv20_features_linearbottleneck4_batchnorm1_gamma", 
      "attrs": {
        "__dtype__": "0", 
        "__init__": "ones", 
        "__lr_mult__": "1.0", 
        "__shape__": "(96,)", 
        "__storage_type__": "0", 
        "__wd_mult__": "1.0"
      }, 
      "inputs": []
    }, 
    {
      "op": "null", 
      "name": "mobilenetv20_features_linearbottleneck4_batchnorm1_beta", 
      "attrs": {
        "__dtype__": "0", 
        "__init__": "zeros", 
        "__lr_mult__": "1.0", 
        "__shape__": "(96,)", 
        "__storage_type__": "0", 
        "__wd_mult__": "1.0"
      }, 
      "inputs": []
    }, 
    {
      "op": "null", 
      "name": "mobilenetv20_features_linearbottleneck4_batchnorm1_running_mean", 
      "attrs": {
        "__dtype__": "0", 
        "__init__": "zeros", 
        "__lr_mult__": "1.0", 
        "__shape__": "(96,)", 
        "__storage_type__": "0", 
        "__wd_mult__": "1.0"
      }, 
      "inputs": []
    }, 
    {
      "op": "null", 
      "name": "mobilenetv20_features_linearbottleneck4_batchnorm1_running_var", 
      "attrs": {
        "__dtype__": "0", 
        "__init__": "ones", 
        "__lr_mult__": "1.0", 
        "__shape__": "(96,)", 
        "__storage_type__": "0", 
        "__wd_mult__": "1.0"
      }, 
      "inputs": []
    }, 
    {
      "op": "BatchNorm", 
      "name": "mobilenetv20_features_linearbottleneck4_batchnorm1_fwd", 
      "attrs": {
        "axis": "1", 
        "eps": "1e-05", 
        "fix_gamma": "False", 
        "momentum": "0.9", 
        "use_global_stats": "False"
      }, 
      "inputs": [[111, 0, 0], [112, 0, 0], [113, 0, 0], [114, 0, 7], [115, 0, 7]]
    }, 
    {
      "op": "clip", 
      "name": "mobilenetv20_features_linearbottleneck4_relu61_relu6", 
      "attrs": {
        "a_max": "6", 
        "a_min": "0"
      }, 
      "inputs": [[116, 0, 0]]
    }, 
    {
      "op": "null", 
      "name": "mobilenetv20_features_linearbottleneck4_conv2_weight", 
      "attrs": {
        "__dtype__": "0", 
        "__lr_mult__": "1.0", 
        "__shape__": "(16, 96, 1, 1)", 
        "__storage_type__": "0", 
        "__wd_mult__": "1.0"
      }, 
      "inputs": []
    }, 
    {
      "op": "Convolution", 
      "name": "mobilenetv20_features_linearbottleneck4_conv2_fwd", 
      "attrs": {
        "dilate": "(1, 1)", 
        "kernel": "(1, 1)", 
        "layout": "NCHW", 
        "no_bias": "True", 
        "num_filter": "16", 
        "num_group": "1", 
        "pad": "(0, 0)", 
        "stride": "(1, 1)"
      }, 
      "inputs": [[117, 0, 0], [118, 0, 0]]
    }, 
    {
      "op": "null", 
      "name": "mobilenetv20_features_linearbottleneck4_batchnorm2_gamma", 
      "attrs": {
        "__dtype__": "0", 
        "__init__": "ones", 
        "__lr_mult__": "1.0", 
        "__shape__": "(16,)", 
        "__storage_type__": "0", 
        "__wd_mult__": "1.0"
      }, 
      "inputs": []
    }, 
    {
      "op": "null", 
      "name": "mobilenetv20_features_linearbottleneck4_batchnorm2_beta", 
      "attrs": {
        "__dtype__": "0", 
        "__init__": "zeros", 
        "__lr_mult__": "1.0", 
        "__shape__": "(16,)", 
        "__storage_type__": "0", 
        "__wd_mult__": "1.0"
      }, 
      "inputs": []
    }, 
    {
      "op": "null", 
      "name": "mobilenetv20_features_linearbottleneck4_batchnorm2_running_mean", 
      "attrs": {
        "__dtype__": "0", 
        "__init__": "zeros", 
        "__lr_mult__": "1.0", 
        "__shape__": "(16,)", 
        "__storage_type__": "0", 
        "__wd_mult__": "1.0"
      }, 
      "inputs": []
    }, 
    {
      "op": "null", 
      "name": "mobilenetv20_features_linearbottleneck4_batchnorm2_running_var", 
      "attrs": {
        "__dtype__": "0", 
        "__init__": "ones", 
        "__lr_mult__": "1.0", 
        "__shape__": "(16,)", 
        "__storage_type__": "0", 
        "__wd_mult__": "1.0"
      }, 
      "inputs": []
    }, 
    {
      "op": "BatchNorm", 
      "name": "mobilenetv20_features_linearbottleneck4_batchnorm2_fwd", 
      "attrs": {
        "axis": "1", 
        "eps": "1e-05", 
        "fix_gamma": "False", 
        "momentum": "0.9", 
        "use_global_stats": "False"
      }, 
      "inputs": [[119, 0, 0], [120, 0, 0], [121, 0, 0], [122, 0, 7], [123, 0, 7]]
    }, 
    {
      "op": "elemwise_add", 
      "name": "mobilenetv20_features_linearbottleneck4_elemwise_add0", 
      "inputs": [[124, 0, 0], [101, 0, 0]]
    }, 
    {
      "op": "null", 
      "name": "mobilenetv20_features_linearbottleneck5_conv0_weight", 
      "attrs": {
        "__dtype__": "0", 
        "__lr_mult__": "1.0", 
        "__shape__": "(96, 16, 1, 1)", 
        "__storage_type__": "0", 
        "__wd_mult__": "1.0"
      }, 
      "inputs": []
    }, 
    {
      "op": "Convolution", 
      "name": "mobilenetv20_features_linearbottleneck5_conv0_fwd", 
      "attrs": {
        "dilate": "(1, 1)", 
        "kernel": "(1, 1)", 
        "layout": "NCHW", 
        "no_bias": "True", 
        "num_filter": "96", 
        "num_group": "1", 
        "pad": "(0, 0)", 
        "stride": "(1, 1)"
      }, 
      "inputs": [[125, 0, 0], [126, 0, 0]]
    }, 
    {
      "op": "null", 
      "name": "mobilenetv20_features_linearbottleneck5_batchnorm0_gamma", 
      "attrs": {
        "__dtype__": "0", 
        "__init__": "ones", 
        "__lr_mult__": "1.0", 
        "__shape__": "(96,)", 
        "__storage_type__": "0", 
        "__wd_mult__": "1.0"
      }, 
      "inputs": []
    }, 
    {
      "op": "null", 
      "name": "mobilenetv20_features_linearbottleneck5_batchnorm0_beta", 
      "attrs": {
        "__dtype__": "0", 
        "__init__": "zeros", 
        "__lr_mult__": "1.0", 
        "__shape__": "(96,)", 
        "__storage_type__": "0", 
        "__wd_mult__": "1.0"
      }, 
      "inputs": []
    }, 
    {
      "op": "null", 
      "name": "mobilenetv20_features_linearbottleneck5_batchnorm0_running_mean", 
      "attrs": {
        "__dtype__": "0", 
        "__init__": "zeros", 
        "__lr_mult__": "1.0", 
        "__shape__": "(96,)", 
        "__storage_type__": "0", 
        "__wd_mult__": "1.0"
      }, 
      "inputs": []
    }, 
    {
      "op": "null", 
      "name": "mobilenetv20_features_linearbottleneck5_batchnorm0_running_var", 
      "attrs": {
        "__dtype__": "0", 
        "__init__": "ones", 
        "__lr_mult__": "1.0", 
        "__shape__": "(96,)", 
        "__storage_type__": "0", 
        "__wd_mult__": "1.0"
      }, 
      "inputs": []
    }, 
    {
      "op": "BatchNorm", 
      "name": "mobilenetv20_features_linearbottleneck5_batchnorm0_fwd", 
      "attrs": {
        "axis": "1", 
        "eps": "1e-05", 
        "fix_gamma": "False", 
        "momentum": "0.9", 
        "use_global_stats": "False"
      }, 
      "inputs": [[127, 0, 0], [128, 0, 0], [129, 0, 0], [130, 0, 7], [131, 0, 7]]
    }, 
    {
      "op": "clip", 
      "name": "mobilenetv20_features_linearbottleneck5_relu60_relu6", 
      "attrs": {
        "a_max": "6", 
        "a_min": "0"
      }, 
      "inputs": [[132, 0, 0]]
    }, 
    {
      "op": "null", 
      "name": "mobilenetv20_features_linearbottleneck5_conv1_weight", 
      "attrs": {
        "__dtype__": "0", 
        "__lr_mult__": "1.0", 
        "__shape__": "(96, 1, 3, 3)", 
        "__storage_type__": "0", 
        "__wd_mult__": "1.0"
      }, 
      "inputs": []
    }, 
    {
      "op": "Convolution", 
      "name": "mobilenetv20_features_linearbottleneck5_conv1_fwd", 
      "attrs": {
        "dilate": "(1, 1)", 
        "kernel": "(3, 3)", 
        "layout": "NCHW", 
        "no_bias": "True", 
        "num_filter": "96", 
        "num_group": "96", 
        "pad": "(1, 1)", 
        "stride": "(1, 1)"
      }, 
      "inputs": [[133, 0, 0], [134, 0, 0]]
    }, 
    {
      "op": "null", 
      "name": "mobilenetv20_features_linearbottleneck5_batchnorm1_gamma", 
      "attrs": {
        "__dtype__": "0", 
        "__init__": "ones", 
        "__lr_mult__": "1.0", 
        "__shape__": "(96,)", 
        "__storage_type__": "0", 
        "__wd_mult__": "1.0"
      }, 
      "inputs": []
    }, 
    {
      "op": "null", 
      "name": "mobilenetv20_features_linearbottleneck5_batchnorm1_beta", 
      "attrs": {
        "__dtype__": "0", 
        "__init__": "zeros", 
        "__lr_mult__": "1.0", 
        "__shape__": "(96,)", 
        "__storage_type__": "0", 
        "__wd_mult__": "1.0"
      }, 
      "inputs": []
    }, 
    {
      "op": "null", 
      "name": "mobilenetv20_features_linearbottleneck5_batchnorm1_running_mean", 
      "attrs": {
        "__dtype__": "0", 
        "__init__": "zeros", 
        "__lr_mult__": "1.0", 
        "__shape__": "(96,)", 
        "__storage_type__": "0", 
        "__wd_mult__": "1.0"
      }, 
      "inputs": []
    }, 
    {
      "op": "null", 
      "name": "mobilenetv20_features_linearbottleneck5_batchnorm1_running_var", 
      "attrs": {
        "__dtype__": "0", 
        "__init__": "ones", 
        "__lr_mult__": "1.0", 
        "__shape__": "(96,)", 
        "__storage_type__": "0", 
        "__wd_mult__": "1.0"
      }, 
      "inputs": []
    }, 
    {
      "op": "BatchNorm", 
      "name": "mobilenetv20_features_linearbottleneck5_batchnorm1_fwd", 
      "attrs": {
        "axis": "1", 
        "eps": "1e-05", 
        "fix_gamma": "False", 
        "momentum": "0.9", 
        "use_global_stats": "False"
      }, 
      "inputs": [[135, 0, 0], [136, 0, 0], [137, 0, 0], [138, 0, 7], [139, 0, 7]]
    }, 
    {
      "op": "clip", 
      "name": "mobilenetv20_features_linearbottleneck5_relu61_relu6", 
      "attrs": {
        "a_max": "6", 
        "a_min": "0"
      }, 
      "inputs": [[140, 0, 0]]
    }, 
    {
      "op": "null", 
      "name": "mobilenetv20_features_linearbottleneck5_conv2_weight", 
      "attrs": {
        "__dtype__": "0", 
        "__lr_mult__": "1.0", 
        "__shape__": "(16, 96, 1, 1)", 
        "__storage_type__": "0", 
        "__wd_mult__": "1.0"
      }, 
      "inputs": []
    }, 
    {
      "op": "Convolution", 
      "name": "mobilenetv20_features_linearbottleneck5_conv2_fwd", 
      "attrs": {
        "dilate": "(1, 1)", 
        "kernel": "(1, 1)", 
        "layout": "NCHW", 
        "no_bias": "True", 
        "num_filter": "16", 
        "num_group": "1", 
        "pad": "(0, 0)", 
        "stride": "(1, 1)"
      }, 
      "inputs": [[141, 0, 0], [142, 0, 0]]
    }, 
    {
      "op": "null", 
      "name": "mobilenetv20_features_linearbottleneck5_batchnorm2_gamma", 
      "attrs": {
        "__dtype__": "0", 
        "__init__": "ones", 
        "__lr_mult__": "1.0", 
        "__shape__": "(16,)", 
        "__storage_type__": "0", 
        "__wd_mult__": "1.0"
      }, 
      "inputs": []
    }, 
    {
      "op": "null", 
      "name": "mobilenetv20_features_linearbottleneck5_batchnorm2_beta", 
      "attrs": {
        "__dtype__": "0", 
        "__init__": "zeros", 
        "__lr_mult__": "1.0", 
        "__shape__": "(16,)", 
        "__storage_type__": "0", 
        "__wd_mult__": "1.0"
      }, 
      "inputs": []
    }, 
    {
      "op": "null", 
      "name": "mobilenetv20_features_linearbottleneck5_batchnorm2_running_mean", 
      "attrs": {
        "__dtype__": "0", 
        "__init__": "zeros", 
        "__lr_mult__": "1.0", 
        "__shape__": "(16,)", 
        "__storage_type__": "0", 
        "__wd_mult__": "1.0"
      }, 
      "inputs": []
    }, 
    {
      "op": "null", 
      "name": "mobilenetv20_features_linearbottleneck5_batchnorm2_running_var", 
      "attrs": {
        "__dtype__": "0", 
        "__init__": "ones", 
        "__lr_mult__": "1.0", 
        "__shape__": "(16,)", 
        "__storage_type__": "0", 
        "__wd_mult__": "1.0"
      }, 
      "inputs": []
    }, 
    {
      "op": "BatchNorm", 
      "name": "mobilenetv20_features_linearbottleneck5_batchnorm2_fwd", 
      "attrs": {
        "axis": "1", 
        "eps": "1e-05", 
        "fix_gamma": "False", 
        "momentum": "0.9", 
        "use_global_stats": "False"
      }, 
      "inputs": [[143, 0, 0], [144, 0, 0], [145, 0, 0], [146, 0, 7], [147, 0, 7]]
    }, 
    {
      "op": "elemwise_add", 
      "name": "mobilenetv20_features_linearbottleneck5_elemwise_add0", 
      "inputs": [[148, 0, 0], [125, 0, 0]]
    }, 
    {
      "op": "null", 
      "name": "block1_1_conv5_1_CPM_L1weight", 
      "attrs": {
        "__dtype__": "0", 
        "__lr_mult__": "1.0", 
        "__shape__": "(128, 16, 3, 3)", 
        "__storage_type__": "0", 
        "__wd_mult__": "1.0"
      }, 
      "inputs": []
    }, 
    {
      "op": "null", 
      "name": "block1_1_conv5_1_CPM_L1bias", 
      "attrs": {
        "__dtype__": "0", 
        "__init__": "zeros", 
        "__lr_mult__": "1.0", 
        "__shape__": "(128,)", 
        "__storage_type__": "0", 
        "__wd_mult__": "1.0"
      }, 
      "inputs": []
    }, 
    {
      "op": "Convolution", 
      "name": "block1_1_conv5_1_CPM_L1fwd", 
      "attrs": {
        "dilate": "(1, 1)", 
        "kernel": "(3, 3)", 
        "layout": "NCHW", 
        "no_bias": "False", 
        "num_filter": "128", 
        "num_group": "1", 
        "pad": "(1, 1)", 
        "stride": "(1, 1)"
      }, 
      "inputs": [[149, 0, 0], [150, 0, 0], [151, 0, 0]]
    }, 
    {
      "op": "Activation", 
      "name": "block1_1_conv5_1_CPM_L1relu_fwd", 
      "attrs": {"act_type": "relu"}, 
      "inputs": [[152, 0, 0]]
    }, 
    {
      "op": "null", 
      "name": "block1_1_batchnorm0_gamma", 
      "attrs": {
        "__dtype__": "0", 
        "__init__": "ones", 
        "__lr_mult__": "1.0", 
        "__shape__": "(128,)", 
        "__storage_type__": "0", 
        "__wd_mult__": "1.0"
      }, 
      "inputs": []
    }, 
    {
      "op": "null", 
      "name": "block1_1_batchnorm0_beta", 
      "attrs": {
        "__dtype__": "0", 
        "__init__": "zeros", 
        "__lr_mult__": "1.0", 
        "__shape__": "(128,)", 
        "__storage_type__": "0", 
        "__wd_mult__": "1.0"
      }, 
      "inputs": []
    }, 
    {
      "op": "null", 
      "name": "block1_1_batchnorm0_running_mean", 
      "attrs": {
        "__dtype__": "0", 
        "__init__": "zeros", 
        "__lr_mult__": "1.0", 
        "__shape__": "(128,)", 
        "__storage_type__": "0", 
        "__wd_mult__": "1.0"
      }, 
      "inputs": []
    }, 
    {
      "op": "null", 
      "name": "block1_1_batchnorm0_running_var", 
      "attrs": {
        "__dtype__": "0", 
        "__init__": "ones", 
        "__lr_mult__": "1.0", 
        "__shape__": "(128,)", 
        "__storage_type__": "0", 
        "__wd_mult__": "1.0"
      }, 
      "inputs": []
    }, 
    {
      "op": "BatchNorm", 
      "name": "block1_1_batchnorm0_fwd", 
      "attrs": {
        "axis": "1", 
        "eps": "1e-05", 
        "fix_gamma": "False", 
        "momentum": "0.9", 
        "use_global_stats": "False"
      }, 
      "inputs": [[153, 0, 0], [154, 0, 0], [155, 0, 0], [156, 0, 7], [157, 0, 7]]
    }, 
    {
      "op": "Dropout", 
      "name": "block1_1_dropout0_fwd", 
      "attrs": {
        "axes": "()", 
        "p": "0.2"
      }, 
      "inputs": [[158, 0, 0]]
    }, 
    {
      "op": "null", 
      "name": "block1_1_conv5_2_CPM_L1weight", 
      "attrs": {
        "__dtype__": "0", 
        "__lr_mult__": "1.0", 
        "__shape__": "(128, 128, 3, 3)", 
        "__storage_type__": "0", 
        "__wd_mult__": "1.0"
      }, 
      "inputs": []
    }, 
    {
      "op": "null", 
      "name": "block1_1_conv5_2_CPM_L1bias", 
      "attrs": {
        "__dtype__": "0", 
        "__init__": "zeros", 
        "__lr_mult__": "1.0", 
        "__shape__": "(128,)", 
        "__storage_type__": "0", 
        "__wd_mult__": "1.0"
      }, 
      "inputs": []
    }, 
    {
      "op": "Convolution", 
      "name": "block1_1_conv5_2_CPM_L1fwd", 
      "attrs": {
        "dilate": "(1, 1)", 
        "kernel": "(3, 3)", 
        "layout": "NCHW", 
        "no_bias": "False", 
        "num_filter": "128", 
        "num_group": "1", 
        "pad": "(1, 1)", 
        "stride": "(1, 1)"
      }, 
      "inputs": [[159, 0, 0], [160, 0, 0], [161, 0, 0]]
    }, 
    {
      "op": "Activation", 
      "name": "block1_1_conv5_2_CPM_L1relu_fwd", 
      "attrs": {"act_type": "relu"}, 
      "inputs": [[162, 0, 0]]
    }, 
    {
      "op": "null", 
      "name": "block1_1_batchnorm1_gamma", 
      "attrs": {
        "__dtype__": "0", 
        "__init__": "ones", 
        "__lr_mult__": "1.0", 
        "__shape__": "(128,)", 
        "__storage_type__": "0", 
        "__wd_mult__": "1.0"
      }, 
      "inputs": []
    }, 
    {
      "op": "null", 
      "name": "block1_1_batchnorm1_beta", 
      "attrs": {
        "__dtype__": "0", 
        "__init__": "zeros", 
        "__lr_mult__": "1.0", 
        "__shape__": "(128,)", 
        "__storage_type__": "0", 
        "__wd_mult__": "1.0"
      }, 
      "inputs": []
    }, 
    {
      "op": "null", 
      "name": "block1_1_batchnorm1_running_mean", 
      "attrs": {
        "__dtype__": "0", 
        "__init__": "zeros", 
        "__lr_mult__": "1.0", 
        "__shape__": "(128,)", 
        "__storage_type__": "0", 
        "__wd_mult__": "1.0"
      }, 
      "inputs": []
    }, 
    {
      "op": "null", 
      "name": "block1_1_batchnorm1_running_var", 
      "attrs": {
        "__dtype__": "0", 
        "__init__": "ones", 
        "__lr_mult__": "1.0", 
        "__shape__": "(128,)", 
        "__storage_type__": "0", 
        "__wd_mult__": "1.0"
      }, 
      "inputs": []
    }, 
    {
      "op": "BatchNorm", 
      "name": "block1_1_batchnorm1_fwd", 
      "attrs": {
        "axis": "1", 
        "eps": "1e-05", 
        "fix_gamma": "False", 
        "momentum": "0.9", 
        "use_global_stats": "False"
      }, 
      "inputs": [[163, 0, 0], [164, 0, 0], [165, 0, 0], [166, 0, 7], [167, 0, 7]]
    }, 
    {
      "op": "Dropout", 
      "name": "block1_1_dropout1_fwd", 
      "attrs": {
        "axes": "()", 
        "p": "0.2"
      }, 
      "inputs": [[168, 0, 0]]
    }, 
    {
      "op": "null", 
      "name": "block1_1_conv5_3_CPM_L1weight", 
      "attrs": {
        "__dtype__": "0", 
        "__lr_mult__": "1.0", 
        "__shape__": "(128, 128, 3, 3)", 
        "__storage_type__": "0", 
        "__wd_mult__": "1.0"
      }, 
      "inputs": []
    }, 
    {
      "op": "null", 
      "name": "block1_1_conv5_3_CPM_L1bias", 
      "attrs": {
        "__dtype__": "0", 
        "__init__": "zeros", 
        "__lr_mult__": "1.0", 
        "__shape__": "(128,)", 
        "__storage_type__": "0", 
        "__wd_mult__": "1.0"
      }, 
      "inputs": []
    }, 
    {
      "op": "Convolution", 
      "name": "block1_1_conv5_3_CPM_L1fwd", 
      "attrs": {
        "dilate": "(1, 1)", 
        "kernel": "(3, 3)", 
        "layout": "NCHW", 
        "no_bias": "False", 
        "num_filter": "128", 
        "num_group": "1", 
        "pad": "(1, 1)", 
        "stride": "(1, 1)"
      }, 
      "inputs": [[169, 0, 0], [170, 0, 0], [171, 0, 0]]
    }, 
    {
      "op": "Activation", 
      "name": "block1_1_conv5_3_CPM_L1relu_fwd", 
      "attrs": {"act_type": "relu"}, 
      "inputs": [[172, 0, 0]]
    }, 
    {
      "op": "null", 
      "name": "block1_1_batchnorm2_gamma", 
      "attrs": {
        "__dtype__": "0", 
        "__init__": "ones", 
        "__lr_mult__": "1.0", 
        "__shape__": "(128,)", 
        "__storage_type__": "0", 
        "__wd_mult__": "1.0"
      }, 
      "inputs": []
    }, 
    {
      "op": "null", 
      "name": "block1_1_batchnorm2_beta", 
      "attrs": {
        "__dtype__": "0", 
        "__init__": "zeros", 
        "__lr_mult__": "1.0", 
        "__shape__": "(128,)", 
        "__storage_type__": "0", 
        "__wd_mult__": "1.0"
      }, 
      "inputs": []
    }, 
    {
      "op": "null", 
      "name": "block1_1_batchnorm2_running_mean", 
      "attrs": {
        "__dtype__": "0", 
        "__init__": "zeros", 
        "__lr_mult__": "1.0", 
        "__shape__": "(128,)", 
        "__storage_type__": "0", 
        "__wd_mult__": "1.0"
      }, 
      "inputs": []
    }, 
    {
      "op": "null", 
      "name": "block1_1_batchnorm2_running_var", 
      "attrs": {
        "__dtype__": "0", 
        "__init__": "ones", 
        "__lr_mult__": "1.0", 
        "__shape__": "(128,)", 
        "__storage_type__": "0", 
        "__wd_mult__": "1.0"
      }, 
      "inputs": []
    }, 
    {
      "op": "BatchNorm", 
      "name": "block1_1_batchnorm2_fwd", 
      "attrs": {
        "axis": "1", 
        "eps": "1e-05", 
        "fix_gamma": "False", 
        "momentum": "0.9", 
        "use_global_stats": "False"
      }, 
      "inputs": [[173, 0, 0], [174, 0, 0], [175, 0, 0], [176, 0, 7], [177, 0, 7]]
    }, 
    {
      "op": "Dropout", 
      "name": "block1_1_dropout2_fwd", 
      "attrs": {
        "axes": "()", 
        "p": "0.2"
      }, 
      "inputs": [[178, 0, 0]]
    }, 
    {
      "op": "null", 
      "name": "block1_1_conv5_4_CPM_L1weight", 
      "attrs": {
        "__dtype__": "0", 
        "__lr_mult__": "1.0", 
        "__shape__": "(512, 128, 1, 1)", 
        "__storage_type__": "0", 
        "__wd_mult__": "1.0"
      }, 
      "inputs": []
    }, 
    {
      "op": "null", 
      "name": "block1_1_conv5_4_CPM_L1bias", 
      "attrs": {
        "__dtype__": "0", 
        "__init__": "zeros", 
        "__lr_mult__": "1.0", 
        "__shape__": "(512,)", 
        "__storage_type__": "0", 
        "__wd_mult__": "1.0"
      }, 
      "inputs": []
    }, 
    {
      "op": "Convolution", 
      "name": "block1_1_conv5_4_CPM_L1fwd", 
      "attrs": {
        "dilate": "(1, 1)", 
        "kernel": "(1, 1)", 
        "layout": "NCHW", 
        "no_bias": "False", 
        "num_filter": "512", 
        "num_group": "1", 
        "pad": "(0, 0)", 
        "stride": "(1, 1)"
      }, 
      "inputs": [[179, 0, 0], [180, 0, 0], [181, 0, 0]]
    }, 
    {
      "op": "Activation", 
      "name": "block1_1_conv5_4_CPM_L1relu_fwd", 
      "attrs": {"act_type": "relu"}, 
      "inputs": [[182, 0, 0]]
    }, 
    {
      "op": "null", 
      "name": "block1_1_batchnorm3_gamma", 
      "attrs": {
        "__dtype__": "0", 
        "__init__": "ones", 
        "__lr_mult__": "1.0", 
        "__shape__": "(512,)", 
        "__storage_type__": "0", 
        "__wd_mult__": "1.0"
      }, 
      "inputs": []
    }, 
    {
      "op": "null", 
      "name": "block1_1_batchnorm3_beta", 
      "attrs": {
        "__dtype__": "0", 
        "__init__": "zeros", 
        "__lr_mult__": "1.0", 
        "__shape__": "(512,)", 
        "__storage_type__": "0", 
        "__wd_mult__": "1.0"
      }, 
      "inputs": []
    }, 
    {
      "op": "null", 
      "name": "block1_1_batchnorm3_running_mean", 
      "attrs": {
        "__dtype__": "0", 
        "__init__": "zeros", 
        "__lr_mult__": "1.0", 
        "__shape__": "(512,)", 
        "__storage_type__": "0", 
        "__wd_mult__": "1.0"
      }, 
      "inputs": []
    }, 
    {
      "op": "null", 
      "name": "block1_1_batchnorm3_running_var", 
      "attrs": {
        "__dtype__": "0", 
        "__init__": "ones", 
        "__lr_mult__": "1.0", 
        "__shape__": "(512,)", 
        "__storage_type__": "0", 
        "__wd_mult__": "1.0"
      }, 
      "inputs": []
    }, 
    {
      "op": "BatchNorm", 
      "name": "block1_1_batchnorm3_fwd", 
      "attrs": {
        "axis": "1", 
        "eps": "1e-05", 
        "fix_gamma": "False", 
        "momentum": "0.9", 
        "use_global_stats": "False"
      }, 
      "inputs": [[183, 0, 0], [184, 0, 0], [185, 0, 0], [186, 0, 7], [187, 0, 7]]
    }, 
    {
      "op": "Dropout", 
      "name": "block1_1_dropout3_fwd", 
      "attrs": {
        "axes": "()", 
        "p": "0.2"
      }, 
      "inputs": [[188, 0, 0]]
    }, 
    {
      "op": "null", 
      "name": "block1_1_conv5_5_CPM_L1weight", 
      "attrs": {
        "__dtype__": "0", 
        "__lr_mult__": "1.0", 
        "__shape__": "(38, 512, 1, 1)", 
        "__storage_type__": "0", 
        "__wd_mult__": "1.0"
      }, 
      "inputs": []
    }, 
    {
      "op": "null", 
      "name": "block1_1_conv5_5_CPM_L1bias", 
      "attrs": {
        "__dtype__": "0", 
        "__init__": "zeros", 
        "__lr_mult__": "1.0", 
        "__shape__": "(38,)", 
        "__storage_type__": "0", 
        "__wd_mult__": "1.0"
      }, 
      "inputs": []
    }, 
    {
      "op": "Convolution", 
      "name": "block1_1_conv5_5_CPM_L1fwd", 
      "attrs": {
        "dilate": "(1, 1)", 
        "kernel": "(1, 1)", 
        "layout": "NCHW", 
        "no_bias": "False", 
        "num_filter": "38", 
        "num_group": "1", 
        "pad": "(0, 0)", 
        "stride": "(1, 1)"
      }, 
      "inputs": [[189, 0, 0], [190, 0, 0], [191, 0, 0]]
    }, 
    {
      "op": "null", 
      "name": "block1_2_conv5_1_CPM_L2weight", 
      "attrs": {
        "__dtype__": "0", 
        "__lr_mult__": "1.0", 
        "__shape__": "(128, 16, 3, 3)", 
        "__storage_type__": "0", 
        "__wd_mult__": "1.0"
      }, 
      "inputs": []
    }, 
    {
      "op": "null", 
      "name": "block1_2_conv5_1_CPM_L2bias", 
      "attrs": {
        "__dtype__": "0", 
        "__init__": "zeros", 
        "__lr_mult__": "1.0", 
        "__shape__": "(128,)", 
        "__storage_type__": "0", 
        "__wd_mult__": "1.0"
      }, 
      "inputs": []
    }, 
    {
      "op": "Convolution", 
      "name": "block1_2_conv5_1_CPM_L2fwd", 
      "attrs": {
        "dilate": "(1, 1)", 
        "kernel": "(3, 3)", 
        "layout": "NCHW", 
        "no_bias": "False", 
        "num_filter": "128", 
        "num_group": "1", 
        "pad": "(1, 1)", 
        "stride": "(1, 1)"
      }, 
      "inputs": [[149, 0, 0], [193, 0, 0], [194, 0, 0]]
    }, 
    {
      "op": "Activation", 
      "name": "block1_2_conv5_1_CPM_L2relu_fwd", 
      "attrs": {"act_type": "relu"}, 
      "inputs": [[195, 0, 0]]
    }, 
    {
      "op": "null", 
      "name": "block1_2_batchnorm0_gamma", 
      "attrs": {
        "__dtype__": "0", 
        "__init__": "ones", 
        "__lr_mult__": "1.0", 
        "__shape__": "(128,)", 
        "__storage_type__": "0", 
        "__wd_mult__": "1.0"
      }, 
      "inputs": []
    }, 
    {
      "op": "null", 
      "name": "block1_2_batchnorm0_beta", 
      "attrs": {
        "__dtype__": "0", 
        "__init__": "zeros", 
        "__lr_mult__": "1.0", 
        "__shape__": "(128,)", 
        "__storage_type__": "0", 
        "__wd_mult__": "1.0"
      }, 
      "inputs": []
    }, 
    {
      "op": "null", 
      "name": "block1_2_batchnorm0_running_mean", 
      "attrs": {
        "__dtype__": "0", 
        "__init__": "zeros", 
        "__lr_mult__": "1.0", 
        "__shape__": "(128,)", 
        "__storage_type__": "0", 
        "__wd_mult__": "1.0"
      }, 
      "inputs": []
    }, 
    {
      "op": "null", 
      "name": "block1_2_batchnorm0_running_var", 
      "attrs": {
        "__dtype__": "0", 
        "__init__": "ones", 
        "__lr_mult__": "1.0", 
        "__shape__": "(128,)", 
        "__storage_type__": "0", 
        "__wd_mult__": "1.0"
      }, 
      "inputs": []
    }, 
    {
      "op": "BatchNorm", 
      "name": "block1_2_batchnorm0_fwd", 
      "attrs": {
        "axis": "1", 
        "eps": "1e-05", 
        "fix_gamma": "False", 
        "momentum": "0.9", 
        "use_global_stats": "False"
      }, 
      "inputs": [[196, 0, 0], [197, 0, 0], [198, 0, 0], [199, 0, 7], [200, 0, 7]]
    }, 
    {
      "op": "Dropout", 
      "name": "block1_2_dropout0_fwd", 
      "attrs": {
        "axes": "()", 
        "p": "0.2"
      }, 
      "inputs": [[201, 0, 0]]
    }, 
    {
      "op": "null", 
      "name": "block1_2_conv5_2_CPM_L2weight", 
      "attrs": {
        "__dtype__": "0", 
        "__lr_mult__": "1.0", 
        "__shape__": "(128, 128, 3, 3)", 
        "__storage_type__": "0", 
        "__wd_mult__": "1.0"
      }, 
      "inputs": []
    }, 
    {
      "op": "null", 
      "name": "block1_2_conv5_2_CPM_L2bias", 
      "attrs": {
        "__dtype__": "0", 
        "__init__": "zeros", 
        "__lr_mult__": "1.0", 
        "__shape__": "(128,)", 
        "__storage_type__": "0", 
        "__wd_mult__": "1.0"
      }, 
      "inputs": []
    }, 
    {
      "op": "Convolution", 
      "name": "block1_2_conv5_2_CPM_L2fwd", 
      "attrs": {
        "dilate": "(1, 1)", 
        "kernel": "(3, 3)", 
        "layout": "NCHW", 
        "no_bias": "False", 
        "num_filter": "128", 
        "num_group": "1", 
        "pad": "(1, 1)", 
        "stride": "(1, 1)"
      }, 
      "inputs": [[202, 0, 0], [203, 0, 0], [204, 0, 0]]
    }, 
    {
      "op": "Activation", 
      "name": "block1_2_conv5_2_CPM_L2relu_fwd", 
      "attrs": {"act_type": "relu"}, 
      "inputs": [[205, 0, 0]]
    }, 
    {
      "op": "null", 
      "name": "block1_2_batchnorm1_gamma", 
      "attrs": {
        "__dtype__": "0", 
        "__init__": "ones", 
        "__lr_mult__": "1.0", 
        "__shape__": "(128,)", 
        "__storage_type__": "0", 
        "__wd_mult__": "1.0"
      }, 
      "inputs": []
    }, 
    {
      "op": "null", 
      "name": "block1_2_batchnorm1_beta", 
      "attrs": {
        "__dtype__": "0", 
        "__init__": "zeros", 
        "__lr_mult__": "1.0", 
        "__shape__": "(128,)", 
        "__storage_type__": "0", 
        "__wd_mult__": "1.0"
      }, 
      "inputs": []
    }, 
    {
      "op": "null", 
      "name": "block1_2_batchnorm1_running_mean", 
      "attrs": {
        "__dtype__": "0", 
        "__init__": "zeros", 
        "__lr_mult__": "1.0", 
        "__shape__": "(128,)", 
        "__storage_type__": "0", 
        "__wd_mult__": "1.0"
      }, 
      "inputs": []
    }, 
    {
      "op": "null", 
      "name": "block1_2_batchnorm1_running_var", 
      "attrs": {
        "__dtype__": "0", 
        "__init__": "ones", 
        "__lr_mult__": "1.0", 
        "__shape__": "(128,)", 
        "__storage_type__": "0", 
        "__wd_mult__": "1.0"
      }, 
      "inputs": []
    }, 
    {
      "op": "BatchNorm", 
      "name": "block1_2_batchnorm1_fwd", 
      "attrs": {
        "axis": "1", 
        "eps": "1e-05", 
        "fix_gamma": "False", 
        "momentum": "0.9", 
        "use_global_stats": "False"
      }, 
      "inputs": [[206, 0, 0], [207, 0, 0], [208, 0, 0], [209, 0, 7], [210, 0, 7]]
    }, 
    {
      "op": "Dropout", 
      "name": "block1_2_dropout1_fwd", 
      "attrs": {
        "axes": "()", 
        "p": "0.2"
      }, 
      "inputs": [[211, 0, 0]]
    }, 
    {
      "op": "null", 
      "name": "block1_2_conv5_3_CPM_L2weight", 
      "attrs": {
        "__dtype__": "0", 
        "__lr_mult__": "1.0", 
        "__shape__": "(128, 128, 3, 3)", 
        "__storage_type__": "0", 
        "__wd_mult__": "1.0"
      }, 
      "inputs": []
    }, 
    {
      "op": "null", 
      "name": "block1_2_conv5_3_CPM_L2bias", 
      "attrs": {
        "__dtype__": "0", 
        "__init__": "zeros", 
        "__lr_mult__": "1.0", 
        "__shape__": "(128,)", 
        "__storage_type__": "0", 
        "__wd_mult__": "1.0"
      }, 
      "inputs": []
    }, 
    {
      "op": "Convolution", 
      "name": "block1_2_conv5_3_CPM_L2fwd", 
      "attrs": {
        "dilate": "(1, 1)", 
        "kernel": "(3, 3)", 
        "layout": "NCHW", 
        "no_bias": "False", 
        "num_filter": "128", 
        "num_group": "1", 
        "pad": "(1, 1)", 
        "stride": "(1, 1)"
      }, 
      "inputs": [[212, 0, 0], [213, 0, 0], [214, 0, 0]]
    }, 
    {
      "op": "Activation", 
      "name": "block1_2_conv5_3_CPM_L2relu_fwd", 
      "attrs": {"act_type": "relu"}, 
      "inputs": [[215, 0, 0]]
    }, 
    {
      "op": "null", 
      "name": "block1_2_batchnorm2_gamma", 
      "attrs": {
        "__dtype__": "0", 
        "__init__": "ones", 
        "__lr_mult__": "1.0", 
        "__shape__": "(128,)", 
        "__storage_type__": "0", 
        "__wd_mult__": "1.0"
      }, 
      "inputs": []
    }, 
    {
      "op": "null", 
      "name": "block1_2_batchnorm2_beta", 
      "attrs": {
        "__dtype__": "0", 
        "__init__": "zeros", 
        "__lr_mult__": "1.0", 
        "__shape__": "(128,)", 
        "__storage_type__": "0", 
        "__wd_mult__": "1.0"
      }, 
      "inputs": []
    }, 
    {
      "op": "null", 
      "name": "block1_2_batchnorm2_running_mean", 
      "attrs": {
        "__dtype__": "0", 
        "__init__": "zeros", 
        "__lr_mult__": "1.0", 
        "__shape__": "(128,)", 
        "__storage_type__": "0", 
        "__wd_mult__": "1.0"
      }, 
      "inputs": []
    }, 
    {
      "op": "null", 
      "name": "block1_2_batchnorm2_running_var", 
      "attrs": {
        "__dtype__": "0", 
        "__init__": "ones", 
        "__lr_mult__": "1.0", 
        "__shape__": "(128,)", 
        "__storage_type__": "0", 
        "__wd_mult__": "1.0"
      }, 
      "inputs": []
    }, 
    {
      "op": "BatchNorm", 
      "name": "block1_2_batchnorm2_fwd", 
      "attrs": {
        "axis": "1", 
        "eps": "1e-05", 
        "fix_gamma": "False", 
        "momentum": "0.9", 
        "use_global_stats": "False"
      }, 
      "inputs": [[216, 0, 0], [217, 0, 0], [218, 0, 0], [219, 0, 7], [220, 0, 7]]
    }, 
    {
      "op": "Dropout", 
      "name": "block1_2_dropout2_fwd", 
      "attrs": {
        "axes": "()", 
        "p": "0.2"
      }, 
      "inputs": [[221, 0, 0]]
    }, 
    {
      "op": "null", 
      "name": "block1_2_conv5_4_CPM_L2weight", 
      "attrs": {
        "__dtype__": "0", 
        "__lr_mult__": "1.0", 
        "__shape__": "(512, 128, 1, 1)", 
        "__storage_type__": "0", 
        "__wd_mult__": "1.0"
      }, 
      "inputs": []
    }, 
    {
      "op": "null", 
      "name": "block1_2_conv5_4_CPM_L2bias", 
      "attrs": {
        "__dtype__": "0", 
        "__init__": "zeros", 
        "__lr_mult__": "1.0", 
        "__shape__": "(512,)", 
        "__storage_type__": "0", 
        "__wd_mult__": "1.0"
      }, 
      "inputs": []
    }, 
    {
      "op": "Convolution", 
      "name": "block1_2_conv5_4_CPM_L2fwd", 
      "attrs": {
        "dilate": "(1, 1)", 
        "kernel": "(1, 1)", 
        "layout": "NCHW", 
        "no_bias": "False", 
        "num_filter": "512", 
        "num_group": "1", 
        "pad": "(0, 0)", 
        "stride": "(1, 1)"
      }, 
      "inputs": [[222, 0, 0], [223, 0, 0], [224, 0, 0]]
    }, 
    {
      "op": "Activation", 
      "name": "block1_2_conv5_4_CPM_L2relu_fwd", 
      "attrs": {"act_type": "relu"}, 
      "inputs": [[225, 0, 0]]
    }, 
    {
      "op": "null", 
      "name": "block1_2_batchnorm3_gamma", 
      "attrs": {
        "__dtype__": "0", 
        "__init__": "ones", 
        "__lr_mult__": "1.0", 
        "__shape__": "(512,)", 
        "__storage_type__": "0", 
        "__wd_mult__": "1.0"
      }, 
      "inputs": []
    }, 
    {
      "op": "null", 
      "name": "block1_2_batchnorm3_beta", 
      "attrs": {
        "__dtype__": "0", 
        "__init__": "zeros", 
        "__lr_mult__": "1.0", 
        "__shape__": "(512,)", 
        "__storage_type__": "0", 
        "__wd_mult__": "1.0"
      }, 
      "inputs": []
    }, 
    {
      "op": "null", 
      "name": "block1_2_batchnorm3_running_mean", 
      "attrs": {
        "__dtype__": "0", 
        "__init__": "zeros", 
        "__lr_mult__": "1.0", 
        "__shape__": "(512,)", 
        "__storage_type__": "0", 
        "__wd_mult__": "1.0"
      }, 
      "inputs": []
    }, 
    {
      "op": "null", 
      "name": "block1_2_batchnorm3_running_var", 
      "attrs": {
        "__dtype__": "0", 
        "__init__": "ones", 
        "__lr_mult__": "1.0", 
        "__shape__": "(512,)", 
        "__storage_type__": "0", 
        "__wd_mult__": "1.0"
      }, 
      "inputs": []
    }, 
    {
      "op": "BatchNorm", 
      "name": "block1_2_batchnorm3_fwd", 
      "attrs": {
        "axis": "1", 
        "eps": "1e-05", 
        "fix_gamma": "False", 
        "momentum": "0.9", 
        "use_global_stats": "False"
      }, 
      "inputs": [[226, 0, 0], [227, 0, 0], [228, 0, 0], [229, 0, 7], [230, 0, 7]]
    }, 
    {
      "op": "Dropout", 
      "name": "block1_2_dropout3_fwd", 
      "attrs": {
        "axes": "()", 
        "p": "0.2"
      }, 
      "inputs": [[231, 0, 0]]
    }, 
    {
      "op": "null", 
      "name": "block1_2_conv5_5_CPM_L2weight", 
      "attrs": {
        "__dtype__": "0", 
        "__lr_mult__": "1.0", 
        "__shape__": "(19, 512, 1, 1)", 
        "__storage_type__": "0", 
        "__wd_mult__": "1.0"
      }, 
      "inputs": []
    }, 
    {
      "op": "null", 
      "name": "block1_2_conv5_5_CPM_L2bias", 
      "attrs": {
        "__dtype__": "0", 
        "__init__": "zeros", 
        "__lr_mult__": "1.0", 
        "__shape__": "(19,)", 
        "__storage_type__": "0", 
        "__wd_mult__": "1.0"
      }, 
      "inputs": []
    }, 
    {
      "op": "Convolution", 
      "name": "block1_2_conv5_5_CPM_L2fwd", 
      "attrs": {
        "dilate": "(1, 1)", 
        "kernel": "(1, 1)", 
        "layout": "NCHW", 
        "no_bias": "False", 
        "num_filter": "19", 
        "num_group": "1", 
        "pad": "(0, 0)", 
        "stride": "(1, 1)"
      }, 
      "inputs": [[232, 0, 0], [233, 0, 0], [234, 0, 0]]
    }, 
    {
      "op": "Concat", 
      "name": "rtpose0_concat0", 
      "attrs": {
        "dim": "1", 
        "num_args": "3"
      }, 
      "inputs": [[192, 0, 0], [235, 0, 0], [149, 0, 0]]
    }, 
    {
      "op": "null", 
      "name": "block2_1_Mconv1_stage2_L1weight", 
      "attrs": {
        "__dtype__": "0", 
        "__lr_mult__": "1.0", 
        "__shape__": "(128, 73, 7, 7)", 
        "__storage_type__": "0", 
        "__wd_mult__": "1.0"
      }, 
      "inputs": []
    }, 
    {
      "op": "null", 
      "name": "block2_1_Mconv1_stage2_L1bias", 
      "attrs": {
        "__dtype__": "0", 
        "__init__": "zeros", 
        "__lr_mult__": "1.0", 
        "__shape__": "(128,)", 
        "__storage_type__": "0", 
        "__wd_mult__": "1.0"
      }, 
      "inputs": []
    }, 
    {
      "op": "Convolution", 
      "name": "block2_1_Mconv1_stage2_L1fwd", 
      "attrs": {
        "dilate": "(1, 1)", 
        "kernel": "(7, 7)", 
        "layout": "NCHW", 
        "no_bias": "False", 
        "num_filter": "128", 
        "num_group": "1", 
        "pad": "(3, 3)", 
        "stride": "(1, 1)"
      }, 
      "inputs": [[236, 0, 0], [237, 0, 0], [238, 0, 0]]
    }, 
    {
      "op": "Activation", 
      "name": "block2_1_Mconv1_stage2_L1relu_fwd", 
      "attrs": {"act_type": "relu"}, 
      "inputs": [[239, 0, 0]]
    }, 
    {
      "op": "null", 
      "name": "block2_1_batchnorm0_gamma", 
      "attrs": {
        "__dtype__": "0", 
        "__init__": "ones", 
        "__lr_mult__": "1.0", 
        "__shape__": "(128,)", 
        "__storage_type__": "0", 
        "__wd_mult__": "1.0"
      }, 
      "inputs": []
    }, 
    {
      "op": "null", 
      "name": "block2_1_batchnorm0_beta", 
      "attrs": {
        "__dtype__": "0", 
        "__init__": "zeros", 
        "__lr_mult__": "1.0", 
        "__shape__": "(128,)", 
        "__storage_type__": "0", 
        "__wd_mult__": "1.0"
      }, 
      "inputs": []
    }, 
    {
      "op": "null", 
      "name": "block2_1_batchnorm0_running_mean", 
      "attrs": {
        "__dtype__": "0", 
        "__init__": "zeros", 
        "__lr_mult__": "1.0", 
        "__shape__": "(128,)", 
        "__storage_type__": "0", 
        "__wd_mult__": "1.0"
      }, 
      "inputs": []
    }, 
    {
      "op": "null", 
      "name": "block2_1_batchnorm0_running_var", 
      "attrs": {
        "__dtype__": "0", 
        "__init__": "ones", 
        "__lr_mult__": "1.0", 
        "__shape__": "(128,)", 
        "__storage_type__": "0", 
        "__wd_mult__": "1.0"
      }, 
      "inputs": []
    }, 
    {
      "op": "BatchNorm", 
      "name": "block2_1_batchnorm0_fwd", 
      "attrs": {
        "axis": "1", 
        "eps": "1e-05", 
        "fix_gamma": "False", 
        "momentum": "0.9", 
        "use_global_stats": "False"
      }, 
      "inputs": [[240, 0, 0], [241, 0, 0], [242, 0, 0], [243, 0, 7], [244, 0, 7]]
    }, 
    {
      "op": "Dropout", 
      "name": "block2_1_dropout0_fwd", 
      "attrs": {
        "axes": "()", 
        "p": "0.2"
      }, 
      "inputs": [[245, 0, 0]]
    }, 
    {
      "op": "null", 
      "name": "block2_1_Mconv2_stage2_L1weight", 
      "attrs": {
        "__dtype__": "0", 
        "__lr_mult__": "1.0", 
        "__shape__": "(128, 128, 7, 7)", 
        "__storage_type__": "0", 
        "__wd_mult__": "1.0"
      }, 
      "inputs": []
    }, 
    {
      "op": "null", 
      "name": "block2_1_Mconv2_stage2_L1bias", 
      "attrs": {
        "__dtype__": "0", 
        "__init__": "zeros", 
        "__lr_mult__": "1.0", 
        "__shape__": "(128,)", 
        "__storage_type__": "0", 
        "__wd_mult__": "1.0"
      }, 
      "inputs": []
    }, 
    {
      "op": "Convolution", 
      "name": "block2_1_Mconv2_stage2_L1fwd", 
      "attrs": {
        "dilate": "(1, 1)", 
        "kernel": "(7, 7)", 
        "layout": "NCHW", 
        "no_bias": "False", 
        "num_filter": "128", 
        "num_group": "1", 
        "pad": "(3, 3)", 
        "stride": "(1, 1)"
      }, 
      "inputs": [[246, 0, 0], [247, 0, 0], [248, 0, 0]]
    }, 
    {
      "op": "Activation", 
      "name": "block2_1_Mconv2_stage2_L1relu_fwd", 
      "attrs": {"act_type": "relu"}, 
      "inputs": [[249, 0, 0]]
    }, 
    {
      "op": "null", 
      "name": "block2_1_batchnorm1_gamma", 
      "attrs": {
        "__dtype__": "0", 
        "__init__": "ones", 
        "__lr_mult__": "1.0", 
        "__shape__": "(128,)", 
        "__storage_type__": "0", 
        "__wd_mult__": "1.0"
      }, 
      "inputs": []
    }, 
    {
      "op": "null", 
      "name": "block2_1_batchnorm1_beta", 
      "attrs": {
        "__dtype__": "0", 
        "__init__": "zeros", 
        "__lr_mult__": "1.0", 
        "__shape__": "(128,)", 
        "__storage_type__": "0", 
        "__wd_mult__": "1.0"
      }, 
      "inputs": []
    }, 
    {
      "op": "null", 
      "name": "block2_1_batchnorm1_running_mean", 
      "attrs": {
        "__dtype__": "0", 
        "__init__": "zeros", 
        "__lr_mult__": "1.0", 
        "__shape__": "(128,)", 
        "__storage_type__": "0", 
        "__wd_mult__": "1.0"
      }, 
      "inputs": []
    }, 
    {
      "op": "null", 
      "name": "block2_1_batchnorm1_running_var", 
      "attrs": {
        "__dtype__": "0", 
        "__init__": "ones", 
        "__lr_mult__": "1.0", 
        "__shape__": "(128,)", 
        "__storage_type__": "0", 
        "__wd_mult__": "1.0"
      }, 
      "inputs": []
    }, 
    {
      "op": "BatchNorm", 
      "name": "block2_1_batchnorm1_fwd", 
      "attrs": {
        "axis": "1", 
        "eps": "1e-05", 
        "fix_gamma": "False", 
        "momentum": "0.9", 
        "use_global_stats": "False"
      }, 
      "inputs": [[250, 0, 0], [251, 0, 0], [252, 0, 0], [253, 0, 7], [254, 0, 7]]
    }, 
    {
      "op": "Dropout", 
      "name": "block2_1_dropout1_fwd", 
      "attrs": {
        "axes": "()", 
        "p": "0.2"
      }, 
      "inputs": [[255, 0, 0]]
    }, 
    {
      "op": "null", 
      "name": "block2_1_Mconv3_stage2_L1weight", 
      "attrs": {
        "__dtype__": "0", 
        "__lr_mult__": "1.0", 
        "__shape__": "(128, 128, 7, 7)", 
        "__storage_type__": "0", 
        "__wd_mult__": "1.0"
      }, 
      "inputs": []
    }, 
    {
      "op": "null", 
      "name": "block2_1_Mconv3_stage2_L1bias", 
      "attrs": {
        "__dtype__": "0", 
        "__init__": "zeros", 
        "__lr_mult__": "1.0", 
        "__shape__": "(128,)", 
        "__storage_type__": "0", 
        "__wd_mult__": "1.0"
      }, 
      "inputs": []
    }, 
    {
      "op": "Convolution", 
      "name": "block2_1_Mconv3_stage2_L1fwd", 
      "attrs": {
        "dilate": "(1, 1)", 
        "kernel": "(7, 7)", 
        "layout": "NCHW", 
        "no_bias": "False", 
        "num_filter": "128", 
        "num_group": "1", 
        "pad": "(3, 3)", 
        "stride": "(1, 1)"
      }, 
      "inputs": [[256, 0, 0], [257, 0, 0], [258, 0, 0]]
    }, 
    {
      "op": "Activation", 
      "name": "block2_1_Mconv3_stage2_L1relu_fwd", 
      "attrs": {"act_type": "relu"}, 
      "inputs": [[259, 0, 0]]
    }, 
    {
      "op": "null", 
      "name": "block2_1_batchnorm2_gamma", 
      "attrs": {
        "__dtype__": "0", 
        "__init__": "ones", 
        "__lr_mult__": "1.0", 
        "__shape__": "(128,)", 
        "__storage_type__": "0", 
        "__wd_mult__": "1.0"
      }, 
      "inputs": []
    }, 
    {
      "op": "null", 
      "name": "block2_1_batchnorm2_beta", 
      "attrs": {
        "__dtype__": "0", 
        "__init__": "zeros", 
        "__lr_mult__": "1.0", 
        "__shape__": "(128,)", 
        "__storage_type__": "0", 
        "__wd_mult__": "1.0"
      }, 
      "inputs": []
    }, 
    {
      "op": "null", 
      "name": "block2_1_batchnorm2_running_mean", 
      "attrs": {
        "__dtype__": "0", 
        "__init__": "zeros", 
        "__lr_mult__": "1.0", 
        "__shape__": "(128,)", 
        "__storage_type__": "0", 
        "__wd_mult__": "1.0"
      }, 
      "inputs": []
    }, 
    {
      "op": "null", 
      "name": "block2_1_batchnorm2_running_var", 
      "attrs": {
        "__dtype__": "0", 
        "__init__": "ones", 
        "__lr_mult__": "1.0", 
        "__shape__": "(128,)", 
        "__storage_type__": "0", 
        "__wd_mult__": "1.0"
      }, 
      "inputs": []
    }, 
    {
      "op": "BatchNorm", 
      "name": "block2_1_batchnorm2_fwd", 
      "attrs": {
        "axis": "1", 
        "eps": "1e-05", 
        "fix_gamma": "False", 
        "momentum": "0.9", 
        "use_global_stats": "False"
      }, 
      "inputs": [[260, 0, 0], [261, 0, 0], [262, 0, 0], [263, 0, 7], [264, 0, 7]]
    }, 
    {
      "op": "Dropout", 
      "name": "block2_1_dropout2_fwd", 
      "attrs": {
        "axes": "()", 
        "p": "0.2"
      }, 
      "inputs": [[265, 0, 0]]
    }, 
    {
      "op": "null", 
      "name": "block2_1_Mconv4_stage2_L1weight", 
      "attrs": {
        "__dtype__": "0", 
        "__lr_mult__": "1.0", 
        "__shape__": "(128, 128, 7, 7)", 
        "__storage_type__": "0", 
        "__wd_mult__": "1.0"
      }, 
      "inputs": []
    }, 
    {
      "op": "null", 
      "name": "block2_1_Mconv4_stage2_L1bias", 
      "attrs": {
        "__dtype__": "0", 
        "__init__": "zeros", 
        "__lr_mult__": "1.0", 
        "__shape__": "(128,)", 
        "__storage_type__": "0", 
        "__wd_mult__": "1.0"
      }, 
      "inputs": []
    }, 
    {
      "op": "Convolution", 
      "name": "block2_1_Mconv4_stage2_L1fwd", 
      "attrs": {
        "dilate": "(1, 1)", 
        "kernel": "(7, 7)", 
        "layout": "NCHW", 
        "no_bias": "False", 
        "num_filter": "128", 
        "num_group": "1", 
        "pad": "(3, 3)", 
        "stride": "(1, 1)"
      }, 
      "inputs": [[266, 0, 0], [267, 0, 0], [268, 0, 0]]
    }, 
    {
      "op": "Activation", 
      "name": "block2_1_Mconv4_stage2_L1relu_fwd", 
      "attrs": {"act_type": "relu"}, 
      "inputs": [[269, 0, 0]]
    }, 
    {
      "op": "null", 
      "name": "block2_1_batchnorm3_gamma", 
      "attrs": {
        "__dtype__": "0", 
        "__init__": "ones", 
        "__lr_mult__": "1.0", 
        "__shape__": "(128,)", 
        "__storage_type__": "0", 
        "__wd_mult__": "1.0"
      }, 
      "inputs": []
    }, 
    {
      "op": "null", 
      "name": "block2_1_batchnorm3_beta", 
      "attrs": {
        "__dtype__": "0", 
        "__init__": "zeros", 
        "__lr_mult__": "1.0", 
        "__shape__": "(128,)", 
        "__storage_type__": "0", 
        "__wd_mult__": "1.0"
      }, 
      "inputs": []
    }, 
    {
      "op": "null", 
      "name": "block2_1_batchnorm3_running_mean", 
      "attrs": {
        "__dtype__": "0", 
        "__init__": "zeros", 
        "__lr_mult__": "1.0", 
        "__shape__": "(128,)", 
        "__storage_type__": "0", 
        "__wd_mult__": "1.0"
      }, 
      "inputs": []
    }, 
    {
      "op": "null", 
      "name": "block2_1_batchnorm3_running_var", 
      "attrs": {
        "__dtype__": "0", 
        "__init__": "ones", 
        "__lr_mult__": "1.0", 
        "__shape__": "(128,)", 
        "__storage_type__": "0", 
        "__wd_mult__": "1.0"
      }, 
      "inputs": []
    }, 
    {
      "op": "BatchNorm", 
      "name": "block2_1_batchnorm3_fwd", 
      "attrs": {
        "axis": "1", 
        "eps": "1e-05", 
        "fix_gamma": "False", 
        "momentum": "0.9", 
        "use_global_stats": "False"
      }, 
      "inputs": [[270, 0, 0], [271, 0, 0], [272, 0, 0], [273, 0, 7], [274, 0, 7]]
    }, 
    {
      "op": "Dropout", 
      "name": "block2_1_dropout3_fwd", 
      "attrs": {
        "axes": "()", 
        "p": "0.2"
      }, 
      "inputs": [[275, 0, 0]]
    }, 
    {
      "op": "null", 
      "name": "block2_1_Mconv5_stage2_L1weight", 
      "attrs": {
        "__dtype__": "0", 
        "__lr_mult__": "1.0", 
        "__shape__": "(128, 128, 7, 7)", 
        "__storage_type__": "0", 
        "__wd_mult__": "1.0"
      }, 
      "inputs": []
    }, 
    {
      "op": "null", 
      "name": "block2_1_Mconv5_stage2_L1bias", 
      "attrs": {
        "__dtype__": "0", 
        "__init__": "zeros", 
        "__lr_mult__": "1.0", 
        "__shape__": "(128,)", 
        "__storage_type__": "0", 
        "__wd_mult__": "1.0"
      }, 
      "inputs": []
    }, 
    {
      "op": "Convolution", 
      "name": "block2_1_Mconv5_stage2_L1fwd", 
      "attrs": {
        "dilate": "(1, 1)", 
        "kernel": "(7, 7)", 
        "layout": "NCHW", 
        "no_bias": "False", 
        "num_filter": "128", 
        "num_group": "1", 
        "pad": "(3, 3)", 
        "stride": "(1, 1)"
      }, 
      "inputs": [[276, 0, 0], [277, 0, 0], [278, 0, 0]]
    }, 
    {
      "op": "Activation", 
      "name": "block2_1_Mconv5_stage2_L1relu_fwd", 
      "attrs": {"act_type": "relu"}, 
      "inputs": [[279, 0, 0]]
    }, 
    {
      "op": "null", 
      "name": "block2_1_batchnorm4_gamma", 
      "attrs": {
        "__dtype__": "0", 
        "__init__": "ones", 
        "__lr_mult__": "1.0", 
        "__shape__": "(128,)", 
        "__storage_type__": "0", 
        "__wd_mult__": "1.0"
      }, 
      "inputs": []
    }, 
    {
      "op": "null", 
      "name": "block2_1_batchnorm4_beta", 
      "attrs": {
        "__dtype__": "0", 
        "__init__": "zeros", 
        "__lr_mult__": "1.0", 
        "__shape__": "(128,)", 
        "__storage_type__": "0", 
        "__wd_mult__": "1.0"
      }, 
      "inputs": []
    }, 
    {
      "op": "null", 
      "name": "block2_1_batchnorm4_running_mean", 
      "attrs": {
        "__dtype__": "0", 
        "__init__": "zeros", 
        "__lr_mult__": "1.0", 
        "__shape__": "(128,)", 
        "__storage_type__": "0", 
        "__wd_mult__": "1.0"
      }, 
      "inputs": []
    }, 
    {
      "op": "null", 
      "name": "block2_1_batchnorm4_running_var", 
      "attrs": {
        "__dtype__": "0", 
        "__init__": "ones", 
        "__lr_mult__": "1.0", 
        "__shape__": "(128,)", 
        "__storage_type__": "0", 
        "__wd_mult__": "1.0"
      }, 
      "inputs": []
    }, 
    {
      "op": "BatchNorm", 
      "name": "block2_1_batchnorm4_fwd", 
      "attrs": {
        "axis": "1", 
        "eps": "1e-05", 
        "fix_gamma": "False", 
        "momentum": "0.9", 
        "use_global_stats": "False"
      }, 
      "inputs": [[280, 0, 0], [281, 0, 0], [282, 0, 0], [283, 0, 7], [284, 0, 7]]
    }, 
    {
      "op": "Dropout", 
      "name": "block2_1_dropout4_fwd", 
      "attrs": {
        "axes": "()", 
        "p": "0.2"
      }, 
      "inputs": [[285, 0, 0]]
    }, 
    {
      "op": "null", 
      "name": "block2_1_Mconv6_stage2_L1weight", 
      "attrs": {
        "__dtype__": "0", 
        "__lr_mult__": "1.0", 
        "__shape__": "(128, 128, 1, 1)", 
        "__storage_type__": "0", 
        "__wd_mult__": "1.0"
      }, 
      "inputs": []
    }, 
    {
      "op": "null", 
      "name": "block2_1_Mconv6_stage2_L1bias", 
      "attrs": {
        "__dtype__": "0", 
        "__init__": "zeros", 
        "__lr_mult__": "1.0", 
        "__shape__": "(128,)", 
        "__storage_type__": "0", 
        "__wd_mult__": "1.0"
      }, 
      "inputs": []
    }, 
    {
      "op": "Convolution", 
      "name": "block2_1_Mconv6_stage2_L1fwd", 
      "attrs": {
        "dilate": "(1, 1)", 
        "kernel": "(1, 1)", 
        "layout": "NCHW", 
        "no_bias": "False", 
        "num_filter": "128", 
        "num_group": "1", 
        "pad": "(0, 0)", 
        "stride": "(1, 1)"
      }, 
      "inputs": [[286, 0, 0], [287, 0, 0], [288, 0, 0]]
    }, 
    {
      "op": "Activation", 
      "name": "block2_1_Mconv6_stage2_L1relu_fwd", 
      "attrs": {"act_type": "relu"}, 
      "inputs": [[289, 0, 0]]
    }, 
    {
      "op": "null", 
      "name": "block2_1_batchnorm5_gamma", 
      "attrs": {
        "__dtype__": "0", 
        "__init__": "ones", 
        "__lr_mult__": "1.0", 
        "__shape__": "(128,)", 
        "__storage_type__": "0", 
        "__wd_mult__": "1.0"
      }, 
      "inputs": []
    }, 
    {
      "op": "null", 
      "name": "block2_1_batchnorm5_beta", 
      "attrs": {
        "__dtype__": "0", 
        "__init__": "zeros", 
        "__lr_mult__": "1.0", 
        "__shape__": "(128,)", 
        "__storage_type__": "0", 
        "__wd_mult__": "1.0"
      }, 
      "inputs": []
    }, 
    {
      "op": "null", 
      "name": "block2_1_batchnorm5_running_mean", 
      "attrs": {
        "__dtype__": "0", 
        "__init__": "zeros", 
        "__lr_mult__": "1.0", 
        "__shape__": "(128,)", 
        "__storage_type__": "0", 
        "__wd_mult__": "1.0"
      }, 
      "inputs": []
    }, 
    {
      "op": "null", 
      "name": "block2_1_batchnorm5_running_var", 
      "attrs": {
        "__dtype__": "0", 
        "__init__": "ones", 
        "__lr_mult__": "1.0", 
        "__shape__": "(128,)", 
        "__storage_type__": "0", 
        "__wd_mult__": "1.0"
      }, 
      "inputs": []
    }, 
    {
      "op": "BatchNorm", 
      "name": "block2_1_batchnorm5_fwd", 
      "attrs": {
        "axis": "1", 
        "eps": "1e-05", 
        "fix_gamma": "False", 
        "momentum": "0.9", 
        "use_global_stats": "False"
      }, 
      "inputs": [[290, 0, 0], [291, 0, 0], [292, 0, 0], [293, 0, 7], [294, 0, 7]]
    }, 
    {
      "op": "Dropout", 
      "name": "block2_1_dropout5_fwd", 
      "attrs": {
        "axes": "()", 
        "p": "0.2"
      }, 
      "inputs": [[295, 0, 0]]
    }, 
    {
      "op": "null", 
      "name": "block2_1_Mconv7_stage2_L1weight", 
      "attrs": {
        "__dtype__": "0", 
        "__lr_mult__": "1.0", 
        "__shape__": "(38, 128, 1, 1)", 
        "__storage_type__": "0", 
        "__wd_mult__": "1.0"
      }, 
      "inputs": []
    }, 
    {
      "op": "null", 
      "name": "block2_1_Mconv7_stage2_L1bias", 
      "attrs": {
        "__dtype__": "0", 
        "__init__": "zeros", 
        "__lr_mult__": "1.0", 
        "__shape__": "(38,)", 
        "__storage_type__": "0", 
        "__wd_mult__": "1.0"
      }, 
      "inputs": []
    }, 
    {
      "op": "Convolution", 
      "name": "block2_1_Mconv7_stage2_L1fwd", 
      "attrs": {
        "dilate": "(1, 1)", 
        "kernel": "(1, 1)", 
        "layout": "NCHW", 
        "no_bias": "False", 
        "num_filter": "38", 
        "num_group": "1", 
        "pad": "(0, 0)", 
        "stride": "(1, 1)"
      }, 
      "inputs": [[296, 0, 0], [297, 0, 0], [298, 0, 0]]
    }, 
    {
      "op": "null", 
      "name": "block2_2_Mconv1_stage2_L2weight", 
      "attrs": {
        "__dtype__": "0", 
        "__lr_mult__": "1.0", 
        "__shape__": "(128, 73, 7, 7)", 
        "__storage_type__": "0", 
        "__wd_mult__": "1.0"
      }, 
      "inputs": []
    }, 
    {
      "op": "null", 
      "name": "block2_2_Mconv1_stage2_L2bias", 
      "attrs": {
        "__dtype__": "0", 
        "__init__": "zeros", 
        "__lr_mult__": "1.0", 
        "__shape__": "(128,)", 
        "__storage_type__": "0", 
        "__wd_mult__": "1.0"
      }, 
      "inputs": []
    }, 
    {
      "op": "Convolution", 
      "name": "block2_2_Mconv1_stage2_L2fwd", 
      "attrs": {
        "dilate": "(1, 1)", 
        "kernel": "(7, 7)", 
        "layout": "NCHW", 
        "no_bias": "False", 
        "num_filter": "128", 
        "num_group": "1", 
        "pad": "(3, 3)", 
        "stride": "(1, 1)"
      }, 
      "inputs": [[236, 0, 0], [300, 0, 0], [301, 0, 0]]
    }, 
    {
      "op": "Activation", 
      "name": "block2_2_Mconv1_stage2_L2relu_fwd", 
      "attrs": {"act_type": "relu"}, 
      "inputs": [[302, 0, 0]]
    }, 
    {
      "op": "null", 
      "name": "block2_2_batchnorm0_gamma", 
      "attrs": {
        "__dtype__": "0", 
        "__init__": "ones", 
        "__lr_mult__": "1.0", 
        "__shape__": "(128,)", 
        "__storage_type__": "0", 
        "__wd_mult__": "1.0"
      }, 
      "inputs": []
    }, 
    {
      "op": "null", 
      "name": "block2_2_batchnorm0_beta", 
      "attrs": {
        "__dtype__": "0", 
        "__init__": "zeros", 
        "__lr_mult__": "1.0", 
        "__shape__": "(128,)", 
        "__storage_type__": "0", 
        "__wd_mult__": "1.0"
      }, 
      "inputs": []
    }, 
    {
      "op": "null", 
      "name": "block2_2_batchnorm0_running_mean", 
      "attrs": {
        "__dtype__": "0", 
        "__init__": "zeros", 
        "__lr_mult__": "1.0", 
        "__shape__": "(128,)", 
        "__storage_type__": "0", 
        "__wd_mult__": "1.0"
      }, 
      "inputs": []
    }, 
    {
      "op": "null", 
      "name": "block2_2_batchnorm0_running_var", 
      "attrs": {
        "__dtype__": "0", 
        "__init__": "ones", 
        "__lr_mult__": "1.0", 
        "__shape__": "(128,)", 
        "__storage_type__": "0", 
        "__wd_mult__": "1.0"
      }, 
      "inputs": []
    }, 
    {
      "op": "BatchNorm", 
      "name": "block2_2_batchnorm0_fwd", 
      "attrs": {
        "axis": "1", 
        "eps": "1e-05", 
        "fix_gamma": "False", 
        "momentum": "0.9", 
        "use_global_stats": "False"
      }, 
      "inputs": [[303, 0, 0], [304, 0, 0], [305, 0, 0], [306, 0, 7], [307, 0, 7]]
    }, 
    {
      "op": "Dropout", 
      "name": "block2_2_dropout0_fwd", 
      "attrs": {
        "axes": "()", 
        "p": "0.2"
      }, 
      "inputs": [[308, 0, 0]]
    }, 
    {
      "op": "null", 
      "name": "block2_2_Mconv2_stage2_L2weight", 
      "attrs": {
        "__dtype__": "0", 
        "__lr_mult__": "1.0", 
        "__shape__": "(128, 128, 7, 7)", 
        "__storage_type__": "0", 
        "__wd_mult__": "1.0"
      }, 
      "inputs": []
    }, 
    {
      "op": "null", 
      "name": "block2_2_Mconv2_stage2_L2bias", 
      "attrs": {
        "__dtype__": "0", 
        "__init__": "zeros", 
        "__lr_mult__": "1.0", 
        "__shape__": "(128,)", 
        "__storage_type__": "0", 
        "__wd_mult__": "1.0"
      }, 
      "inputs": []
    }, 
    {
      "op": "Convolution", 
      "name": "block2_2_Mconv2_stage2_L2fwd", 
      "attrs": {
        "dilate": "(1, 1)", 
        "kernel": "(7, 7)", 
        "layout": "NCHW", 
        "no_bias": "False", 
        "num_filter": "128", 
        "num_group": "1", 
        "pad": "(3, 3)", 
        "stride": "(1, 1)"
      }, 
      "inputs": [[309, 0, 0], [310, 0, 0], [311, 0, 0]]
    }, 
    {
      "op": "Activation", 
      "name": "block2_2_Mconv2_stage2_L2relu_fwd", 
      "attrs": {"act_type": "relu"}, 
      "inputs": [[312, 0, 0]]
    }, 
    {
      "op": "null", 
      "name": "block2_2_batchnorm1_gamma", 
      "attrs": {
        "__dtype__": "0", 
        "__init__": "ones", 
        "__lr_mult__": "1.0", 
        "__shape__": "(128,)", 
        "__storage_type__": "0", 
        "__wd_mult__": "1.0"
      }, 
      "inputs": []
    }, 
    {
      "op": "null", 
      "name": "block2_2_batchnorm1_beta", 
      "attrs": {
        "__dtype__": "0", 
        "__init__": "zeros", 
        "__lr_mult__": "1.0", 
        "__shape__": "(128,)", 
        "__storage_type__": "0", 
        "__wd_mult__": "1.0"
      }, 
      "inputs": []
    }, 
    {
      "op": "null", 
      "name": "block2_2_batchnorm1_running_mean", 
      "attrs": {
        "__dtype__": "0", 
        "__init__": "zeros", 
        "__lr_mult__": "1.0", 
        "__shape__": "(128,)", 
        "__storage_type__": "0", 
        "__wd_mult__": "1.0"
      }, 
      "inputs": []
    }, 
    {
      "op": "null", 
      "name": "block2_2_batchnorm1_running_var", 
      "attrs": {
        "__dtype__": "0", 
        "__init__": "ones", 
        "__lr_mult__": "1.0", 
        "__shape__": "(128,)", 
        "__storage_type__": "0", 
        "__wd_mult__": "1.0"
      }, 
      "inputs": []
    }, 
    {
      "op": "BatchNorm", 
      "name": "block2_2_batchnorm1_fwd", 
      "attrs": {
        "axis": "1", 
        "eps": "1e-05", 
        "fix_gamma": "False", 
        "momentum": "0.9", 
        "use_global_stats": "False"
      }, 
      "inputs": [[313, 0, 0], [314, 0, 0], [315, 0, 0], [316, 0, 7], [317, 0, 7]]
    }, 
    {
      "op": "Dropout", 
      "name": "block2_2_dropout1_fwd", 
      "attrs": {
        "axes": "()", 
        "p": "0.2"
      }, 
      "inputs": [[318, 0, 0]]
    }, 
    {
      "op": "null", 
      "name": "block2_2_Mconv3_stage2_L2weight", 
      "attrs": {
        "__dtype__": "0", 
        "__lr_mult__": "1.0", 
        "__shape__": "(128, 128, 7, 7)", 
        "__storage_type__": "0", 
        "__wd_mult__": "1.0"
      }, 
      "inputs": []
    }, 
    {
      "op": "null", 
      "name": "block2_2_Mconv3_stage2_L2bias", 
      "attrs": {
        "__dtype__": "0", 
        "__init__": "zeros", 
        "__lr_mult__": "1.0", 
        "__shape__": "(128,)", 
        "__storage_type__": "0", 
        "__wd_mult__": "1.0"
      }, 
      "inputs": []
    }, 
    {
      "op": "Convolution", 
      "name": "block2_2_Mconv3_stage2_L2fwd", 
      "attrs": {
        "dilate": "(1, 1)", 
        "kernel": "(7, 7)", 
        "layout": "NCHW", 
        "no_bias": "False", 
        "num_filter": "128", 
        "num_group": "1", 
        "pad": "(3, 3)", 
        "stride": "(1, 1)"
      }, 
      "inputs": [[319, 0, 0], [320, 0, 0], [321, 0, 0]]
    }, 
    {
      "op": "Activation", 
      "name": "block2_2_Mconv3_stage2_L2relu_fwd", 
      "attrs": {"act_type": "relu"}, 
      "inputs": [[322, 0, 0]]
    }, 
    {
      "op": "null", 
      "name": "block2_2_batchnorm2_gamma", 
      "attrs": {
        "__dtype__": "0", 
        "__init__": "ones", 
        "__lr_mult__": "1.0", 
        "__shape__": "(128,)", 
        "__storage_type__": "0", 
        "__wd_mult__": "1.0"
      }, 
      "inputs": []
    }, 
    {
      "op": "null", 
      "name": "block2_2_batchnorm2_beta", 
      "attrs": {
        "__dtype__": "0", 
        "__init__": "zeros", 
        "__lr_mult__": "1.0", 
        "__shape__": "(128,)", 
        "__storage_type__": "0", 
        "__wd_mult__": "1.0"
      }, 
      "inputs": []
    }, 
    {
      "op": "null", 
      "name": "block2_2_batchnorm2_running_mean", 
      "attrs": {
        "__dtype__": "0", 
        "__init__": "zeros", 
        "__lr_mult__": "1.0", 
        "__shape__": "(128,)", 
        "__storage_type__": "0", 
        "__wd_mult__": "1.0"
      }, 
      "inputs": []
    }, 
    {
      "op": "null", 
      "name": "block2_2_batchnorm2_running_var", 
      "attrs": {
        "__dtype__": "0", 
        "__init__": "ones", 
        "__lr_mult__": "1.0", 
        "__shape__": "(128,)", 
        "__storage_type__": "0", 
        "__wd_mult__": "1.0"
      }, 
      "inputs": []
    }, 
    {
      "op": "BatchNorm", 
      "name": "block2_2_batchnorm2_fwd", 
      "attrs": {
        "axis": "1", 
        "eps": "1e-05", 
        "fix_gamma": "False", 
        "momentum": "0.9", 
        "use_global_stats": "False"
      }, 
      "inputs": [[323, 0, 0], [324, 0, 0], [325, 0, 0], [326, 0, 7], [327, 0, 7]]
    }, 
    {
      "op": "Dropout", 
      "name": "block2_2_dropout2_fwd", 
      "attrs": {
        "axes": "()", 
        "p": "0.2"
      }, 
      "inputs": [[328, 0, 0]]
    }, 
    {
      "op": "null", 
      "name": "block2_2_Mconv4_stage2_L2weight", 
      "attrs": {
        "__dtype__": "0", 
        "__lr_mult__": "1.0", 
        "__shape__": "(128, 128, 7, 7)", 
        "__storage_type__": "0", 
        "__wd_mult__": "1.0"
      }, 
      "inputs": []
    }, 
    {
      "op": "null", 
      "name": "block2_2_Mconv4_stage2_L2bias", 
      "attrs": {
        "__dtype__": "0", 
        "__init__": "zeros", 
        "__lr_mult__": "1.0", 
        "__shape__": "(128,)", 
        "__storage_type__": "0", 
        "__wd_mult__": "1.0"
      }, 
      "inputs": []
    }, 
    {
      "op": "Convolution", 
      "name": "block2_2_Mconv4_stage2_L2fwd", 
      "attrs": {
        "dilate": "(1, 1)", 
        "kernel": "(7, 7)", 
        "layout": "NCHW", 
        "no_bias": "False", 
        "num_filter": "128", 
        "num_group": "1", 
        "pad": "(3, 3)", 
        "stride": "(1, 1)"
      }, 
      "inputs": [[329, 0, 0], [330, 0, 0], [331, 0, 0]]
    }, 
    {
      "op": "Activation", 
      "name": "block2_2_Mconv4_stage2_L2relu_fwd", 
      "attrs": {"act_type": "relu"}, 
      "inputs": [[332, 0, 0]]
    }, 
    {
      "op": "null", 
      "name": "block2_2_batchnorm3_gamma", 
      "attrs": {
        "__dtype__": "0", 
        "__init__": "ones", 
        "__lr_mult__": "1.0", 
        "__shape__": "(128,)", 
        "__storage_type__": "0", 
        "__wd_mult__": "1.0"
      }, 
      "inputs": []
    }, 
    {
      "op": "null", 
      "name": "block2_2_batchnorm3_beta", 
      "attrs": {
        "__dtype__": "0", 
        "__init__": "zeros", 
        "__lr_mult__": "1.0", 
        "__shape__": "(128,)", 
        "__storage_type__": "0", 
        "__wd_mult__": "1.0"
      }, 
      "inputs": []
    }, 
    {
      "op": "null", 
      "name": "block2_2_batchnorm3_running_mean", 
      "attrs": {
        "__dtype__": "0", 
        "__init__": "zeros", 
        "__lr_mult__": "1.0", 
        "__shape__": "(128,)", 
        "__storage_type__": "0", 
        "__wd_mult__": "1.0"
      }, 
      "inputs": []
    }, 
    {
      "op": "null", 
      "name": "block2_2_batchnorm3_running_var", 
      "attrs": {
        "__dtype__": "0", 
        "__init__": "ones", 
        "__lr_mult__": "1.0", 
        "__shape__": "(128,)", 
        "__storage_type__": "0", 
        "__wd_mult__": "1.0"
      }, 
      "inputs": []
    }, 
    {
      "op": "BatchNorm", 
      "name": "block2_2_batchnorm3_fwd", 
      "attrs": {
        "axis": "1", 
        "eps": "1e-05", 
        "fix_gamma": "False", 
        "momentum": "0.9", 
        "use_global_stats": "False"
      }, 
      "inputs": [[333, 0, 0], [334, 0, 0], [335, 0, 0], [336, 0, 7], [337, 0, 7]]
    }, 
    {
      "op": "Dropout", 
      "name": "block2_2_dropout3_fwd", 
      "attrs": {
        "axes": "()", 
        "p": "0.2"
      }, 
      "inputs": [[338, 0, 0]]
    }, 
    {
      "op": "null", 
      "name": "block2_2_Mconv5_stage2_L2weight", 
      "attrs": {
        "__dtype__": "0", 
        "__lr_mult__": "1.0", 
        "__shape__": "(128, 128, 7, 7)", 
        "__storage_type__": "0", 
        "__wd_mult__": "1.0"
      }, 
      "inputs": []
    }, 
    {
      "op": "null", 
      "name": "block2_2_Mconv5_stage2_L2bias", 
      "attrs": {
        "__dtype__": "0", 
        "__init__": "zeros", 
        "__lr_mult__": "1.0", 
        "__shape__": "(128,)", 
        "__storage_type__": "0", 
        "__wd_mult__": "1.0"
      }, 
      "inputs": []
    }, 
    {
      "op": "Convolution", 
      "name": "block2_2_Mconv5_stage2_L2fwd", 
      "attrs": {
        "dilate": "(1, 1)", 
        "kernel": "(7, 7)", 
        "layout": "NCHW", 
        "no_bias": "False", 
        "num_filter": "128", 
        "num_group": "1", 
        "pad": "(3, 3)", 
        "stride": "(1, 1)"
      }, 
      "inputs": [[339, 0, 0], [340, 0, 0], [341, 0, 0]]
    }, 
    {
      "op": "Activation", 
      "name": "block2_2_Mconv5_stage2_L2relu_fwd", 
      "attrs": {"act_type": "relu"}, 
      "inputs": [[342, 0, 0]]
    }, 
    {
      "op": "null", 
      "name": "block2_2_batchnorm4_gamma", 
      "attrs": {
        "__dtype__": "0", 
        "__init__": "ones", 
        "__lr_mult__": "1.0", 
        "__shape__": "(128,)", 
        "__storage_type__": "0", 
        "__wd_mult__": "1.0"
      }, 
      "inputs": []
    }, 
    {
      "op": "null", 
      "name": "block2_2_batchnorm4_beta", 
      "attrs": {
        "__dtype__": "0", 
        "__init__": "zeros", 
        "__lr_mult__": "1.0", 
        "__shape__": "(128,)", 
        "__storage_type__": "0", 
        "__wd_mult__": "1.0"
      }, 
      "inputs": []
    }, 
    {
      "op": "null", 
      "name": "block2_2_batchnorm4_running_mean", 
      "attrs": {
        "__dtype__": "0", 
        "__init__": "zeros", 
        "__lr_mult__": "1.0", 
        "__shape__": "(128,)", 
        "__storage_type__": "0", 
        "__wd_mult__": "1.0"
      }, 
      "inputs": []
    }, 
    {
      "op": "null", 
      "name": "block2_2_batchnorm4_running_var", 
      "attrs": {
        "__dtype__": "0", 
        "__init__": "ones", 
        "__lr_mult__": "1.0", 
        "__shape__": "(128,)", 
        "__storage_type__": "0", 
        "__wd_mult__": "1.0"
      }, 
      "inputs": []
    }, 
    {
      "op": "BatchNorm", 
      "name": "block2_2_batchnorm4_fwd", 
      "attrs": {
        "axis": "1", 
        "eps": "1e-05", 
        "fix_gamma": "False", 
        "momentum": "0.9", 
        "use_global_stats": "False"
      }, 
      "inputs": [[343, 0, 0], [344, 0, 0], [345, 0, 0], [346, 0, 7], [347, 0, 7]]
    }, 
    {
      "op": "Dropout", 
      "name": "block2_2_dropout4_fwd", 
      "attrs": {
        "axes": "()", 
        "p": "0.2"
      }, 
      "inputs": [[348, 0, 0]]
    }, 
    {
      "op": "null", 
      "name": "block2_2_Mconv6_stage2_L2weight", 
      "attrs": {
        "__dtype__": "0", 
        "__lr_mult__": "1.0", 
        "__shape__": "(128, 128, 1, 1)", 
        "__storage_type__": "0", 
        "__wd_mult__": "1.0"
      }, 
      "inputs": []
    }, 
    {
      "op": "null", 
      "name": "block2_2_Mconv6_stage2_L2bias", 
      "attrs": {
        "__dtype__": "0", 
        "__init__": "zeros", 
        "__lr_mult__": "1.0", 
        "__shape__": "(128,)", 
        "__storage_type__": "0", 
        "__wd_mult__": "1.0"
      }, 
      "inputs": []
    }, 
    {
      "op": "Convolution", 
      "name": "block2_2_Mconv6_stage2_L2fwd", 
      "attrs": {
        "dilate": "(1, 1)", 
        "kernel": "(1, 1)", 
        "layout": "NCHW", 
        "no_bias": "False", 
        "num_filter": "128", 
        "num_group": "1", 
        "pad": "(0, 0)", 
        "stride": "(1, 1)"
      }, 
      "inputs": [[349, 0, 0], [350, 0, 0], [351, 0, 0]]
    }, 
    {
      "op": "Activation", 
      "name": "block2_2_Mconv6_stage2_L2relu_fwd", 
      "attrs": {"act_type": "relu"}, 
      "inputs": [[352, 0, 0]]
    }, 
    {
      "op": "null", 
      "name": "block2_2_batchnorm5_gamma", 
      "attrs": {
        "__dtype__": "0", 
        "__init__": "ones", 
        "__lr_mult__": "1.0", 
        "__shape__": "(128,)", 
        "__storage_type__": "0", 
        "__wd_mult__": "1.0"
      }, 
      "inputs": []
    }, 
    {
      "op": "null", 
      "name": "block2_2_batchnorm5_beta", 
      "attrs": {
        "__dtype__": "0", 
        "__init__": "zeros", 
        "__lr_mult__": "1.0", 
        "__shape__": "(128,)", 
        "__storage_type__": "0", 
        "__wd_mult__": "1.0"
      }, 
      "inputs": []
    }, 
    {
      "op": "null", 
      "name": "block2_2_batchnorm5_running_mean", 
      "attrs": {
        "__dtype__": "0", 
        "__init__": "zeros", 
        "__lr_mult__": "1.0", 
        "__shape__": "(128,)", 
        "__storage_type__": "0", 
        "__wd_mult__": "1.0"
      }, 
      "inputs": []
    }, 
    {
      "op": "null", 
      "name": "block2_2_batchnorm5_running_var", 
      "attrs": {
        "__dtype__": "0", 
        "__init__": "ones", 
        "__lr_mult__": "1.0", 
        "__shape__": "(128,)", 
        "__storage_type__": "0", 
        "__wd_mult__": "1.0"
      }, 
      "inputs": []
    }, 
    {
      "op": "BatchNorm", 
      "name": "block2_2_batchnorm5_fwd", 
      "attrs": {
        "axis": "1", 
        "eps": "1e-05", 
        "fix_gamma": "False", 
        "momentum": "0.9", 
        "use_global_stats": "False"
      }, 
      "inputs": [[353, 0, 0], [354, 0, 0], [355, 0, 0], [356, 0, 7], [357, 0, 7]]
    }, 
    {
      "op": "Dropout", 
      "name": "block2_2_dropout5_fwd", 
      "attrs": {
        "axes": "()", 
        "p": "0.2"
      }, 
      "inputs": [[358, 0, 0]]
    }, 
    {
      "op": "null", 
      "name": "block2_2_Mconv7_stage2_L2weight", 
      "attrs": {
        "__dtype__": "0", 
        "__lr_mult__": "1.0", 
        "__shape__": "(19, 128, 1, 1)", 
        "__storage_type__": "0", 
        "__wd_mult__": "1.0"
      }, 
      "inputs": []
    }, 
    {
      "op": "null", 
      "name": "block2_2_Mconv7_stage2_L2bias", 
      "attrs": {
        "__dtype__": "0", 
        "__init__": "zeros", 
        "__lr_mult__": "1.0", 
        "__shape__": "(19,)", 
        "__storage_type__": "0", 
        "__wd_mult__": "1.0"
      }, 
      "inputs": []
    }, 
    {
      "op": "Convolution", 
      "name": "block2_2_Mconv7_stage2_L2fwd", 
      "attrs": {
        "dilate": "(1, 1)", 
        "kernel": "(1, 1)", 
        "layout": "NCHW", 
        "no_bias": "False", 
        "num_filter": "19", 
        "num_group": "1", 
        "pad": "(0, 0)", 
        "stride": "(1, 1)"
      }, 
      "inputs": [[359, 0, 0], [360, 0, 0], [361, 0, 0]]
    }, 
    {
      "op": "Concat", 
      "name": "rtpose0_concat1", 
      "attrs": {
        "dim": "1", 
        "num_args": "3"
      }, 
      "inputs": [[299, 0, 0], [362, 0, 0], [149, 0, 0]]
    }, 
    {
      "op": "null", 
      "name": "block3_1_Mconv1_stage3_L1weight", 
      "attrs": {
        "__dtype__": "0", 
        "__lr_mult__": "1.0", 
        "__shape__": "(128, 73, 7, 7)", 
        "__storage_type__": "0", 
        "__wd_mult__": "1.0"
      }, 
      "inputs": []
    }, 
    {
      "op": "null", 
      "name": "block3_1_Mconv1_stage3_L1bias", 
      "attrs": {
        "__dtype__": "0", 
        "__init__": "zeros", 
        "__lr_mult__": "1.0", 
        "__shape__": "(128,)", 
        "__storage_type__": "0", 
        "__wd_mult__": "1.0"
      }, 
      "inputs": []
    }, 
    {
      "op": "Convolution", 
      "name": "block3_1_Mconv1_stage3_L1fwd", 
      "attrs": {
        "dilate": "(1, 1)", 
        "kernel": "(7, 7)", 
        "layout": "NCHW", 
        "no_bias": "False", 
        "num_filter": "128", 
        "num_group": "1", 
        "pad": "(3, 3)", 
        "stride": "(1, 1)"
      }, 
      "inputs": [[363, 0, 0], [364, 0, 0], [365, 0, 0]]
    }, 
    {
      "op": "Activation", 
      "name": "block3_1_Mconv1_stage3_L1relu_fwd", 
      "attrs": {"act_type": "relu"}, 
      "inputs": [[366, 0, 0]]
    }, 
    {
      "op": "null", 
      "name": "block3_1_batchnorm0_gamma", 
      "attrs": {
        "__dtype__": "0", 
        "__init__": "ones", 
        "__lr_mult__": "1.0", 
        "__shape__": "(128,)", 
        "__storage_type__": "0", 
        "__wd_mult__": "1.0"
      }, 
      "inputs": []
    }, 
    {
      "op": "null", 
      "name": "block3_1_batchnorm0_beta", 
      "attrs": {
        "__dtype__": "0", 
        "__init__": "zeros", 
        "__lr_mult__": "1.0", 
        "__shape__": "(128,)", 
        "__storage_type__": "0", 
        "__wd_mult__": "1.0"
      }, 
      "inputs": []
    }, 
    {
      "op": "null", 
      "name": "block3_1_batchnorm0_running_mean", 
      "attrs": {
        "__dtype__": "0", 
        "__init__": "zeros", 
        "__lr_mult__": "1.0", 
        "__shape__": "(128,)", 
        "__storage_type__": "0", 
        "__wd_mult__": "1.0"
      }, 
      "inputs": []
    }, 
    {
      "op": "null", 
      "name": "block3_1_batchnorm0_running_var", 
      "attrs": {
        "__dtype__": "0", 
        "__init__": "ones", 
        "__lr_mult__": "1.0", 
        "__shape__": "(128,)", 
        "__storage_type__": "0", 
        "__wd_mult__": "1.0"
      }, 
      "inputs": []
    }, 
    {
      "op": "BatchNorm", 
      "name": "block3_1_batchnorm0_fwd", 
      "attrs": {
        "axis": "1", 
        "eps": "1e-05", 
        "fix_gamma": "False", 
        "momentum": "0.9", 
        "use_global_stats": "False"
      }, 
      "inputs": [[367, 0, 0], [368, 0, 0], [369, 0, 0], [370, 0, 7], [371, 0, 7]]
    }, 
    {
      "op": "Dropout", 
      "name": "block3_1_dropout0_fwd", 
      "attrs": {
        "axes": "()", 
        "p": "0.2"
      }, 
      "inputs": [[372, 0, 0]]
    }, 
    {
      "op": "null", 
      "name": "block3_1_Mconv2_stage3_L1weight", 
      "attrs": {
        "__dtype__": "0", 
        "__lr_mult__": "1.0", 
        "__shape__": "(128, 128, 7, 7)", 
        "__storage_type__": "0", 
        "__wd_mult__": "1.0"
      }, 
      "inputs": []
    }, 
    {
      "op": "null", 
      "name": "block3_1_Mconv2_stage3_L1bias", 
      "attrs": {
        "__dtype__": "0", 
        "__init__": "zeros", 
        "__lr_mult__": "1.0", 
        "__shape__": "(128,)", 
        "__storage_type__": "0", 
        "__wd_mult__": "1.0"
      }, 
      "inputs": []
    }, 
    {
      "op": "Convolution", 
      "name": "block3_1_Mconv2_stage3_L1fwd", 
      "attrs": {
        "dilate": "(1, 1)", 
        "kernel": "(7, 7)", 
        "layout": "NCHW", 
        "no_bias": "False", 
        "num_filter": "128", 
        "num_group": "1", 
        "pad": "(3, 3)", 
        "stride": "(1, 1)"
      }, 
      "inputs": [[373, 0, 0], [374, 0, 0], [375, 0, 0]]
    }, 
    {
      "op": "Activation", 
      "name": "block3_1_Mconv2_stage3_L1relu_fwd", 
      "attrs": {"act_type": "relu"}, 
      "inputs": [[376, 0, 0]]
    }, 
    {
      "op": "null", 
      "name": "block3_1_batchnorm1_gamma", 
      "attrs": {
        "__dtype__": "0", 
        "__init__": "ones", 
        "__lr_mult__": "1.0", 
        "__shape__": "(128,)", 
        "__storage_type__": "0", 
        "__wd_mult__": "1.0"
      }, 
      "inputs": []
    }, 
    {
      "op": "null", 
      "name": "block3_1_batchnorm1_beta", 
      "attrs": {
        "__dtype__": "0", 
        "__init__": "zeros", 
        "__lr_mult__": "1.0", 
        "__shape__": "(128,)", 
        "__storage_type__": "0", 
        "__wd_mult__": "1.0"
      }, 
      "inputs": []
    }, 
    {
      "op": "null", 
      "name": "block3_1_batchnorm1_running_mean", 
      "attrs": {
        "__dtype__": "0", 
        "__init__": "zeros", 
        "__lr_mult__": "1.0", 
        "__shape__": "(128,)", 
        "__storage_type__": "0", 
        "__wd_mult__": "1.0"
      }, 
      "inputs": []
    }, 
    {
      "op": "null", 
      "name": "block3_1_batchnorm1_running_var", 
      "attrs": {
        "__dtype__": "0", 
        "__init__": "ones", 
        "__lr_mult__": "1.0", 
        "__shape__": "(128,)", 
        "__storage_type__": "0", 
        "__wd_mult__": "1.0"
      }, 
      "inputs": []
    }, 
    {
      "op": "BatchNorm", 
      "name": "block3_1_batchnorm1_fwd", 
      "attrs": {
        "axis": "1", 
        "eps": "1e-05", 
        "fix_gamma": "False", 
        "momentum": "0.9", 
        "use_global_stats": "False"
      }, 
      "inputs": [[377, 0, 0], [378, 0, 0], [379, 0, 0], [380, 0, 7], [381, 0, 7]]
    }, 
    {
      "op": "Dropout", 
      "name": "block3_1_dropout1_fwd", 
      "attrs": {
        "axes": "()", 
        "p": "0.2"
      }, 
      "inputs": [[382, 0, 0]]
    }, 
    {
      "op": "null", 
      "name": "block3_1_Mconv3_stage3_L1weight", 
      "attrs": {
        "__dtype__": "0", 
        "__lr_mult__": "1.0", 
        "__shape__": "(128, 128, 7, 7)", 
        "__storage_type__": "0", 
        "__wd_mult__": "1.0"
      }, 
      "inputs": []
    }, 
    {
      "op": "null", 
      "name": "block3_1_Mconv3_stage3_L1bias", 
      "attrs": {
        "__dtype__": "0", 
        "__init__": "zeros", 
        "__lr_mult__": "1.0", 
        "__shape__": "(128,)", 
        "__storage_type__": "0", 
        "__wd_mult__": "1.0"
      }, 
      "inputs": []
    }, 
    {
      "op": "Convolution", 
      "name": "block3_1_Mconv3_stage3_L1fwd", 
      "attrs": {
        "dilate": "(1, 1)", 
        "kernel": "(7, 7)", 
        "layout": "NCHW", 
        "no_bias": "False", 
        "num_filter": "128", 
        "num_group": "1", 
        "pad": "(3, 3)", 
        "stride": "(1, 1)"
      }, 
      "inputs": [[383, 0, 0], [384, 0, 0], [385, 0, 0]]
    }, 
    {
      "op": "Activation", 
      "name": "block3_1_Mconv3_stage3_L1relu_fwd", 
      "attrs": {"act_type": "relu"}, 
      "inputs": [[386, 0, 0]]
    }, 
    {
      "op": "null", 
      "name": "block3_1_batchnorm2_gamma", 
      "attrs": {
        "__dtype__": "0", 
        "__init__": "ones", 
        "__lr_mult__": "1.0", 
        "__shape__": "(128,)", 
        "__storage_type__": "0", 
        "__wd_mult__": "1.0"
      }, 
      "inputs": []
    }, 
    {
      "op": "null", 
      "name": "block3_1_batchnorm2_beta", 
      "attrs": {
        "__dtype__": "0", 
        "__init__": "zeros", 
        "__lr_mult__": "1.0", 
        "__shape__": "(128,)", 
        "__storage_type__": "0", 
        "__wd_mult__": "1.0"
      }, 
      "inputs": []
    }, 
    {
      "op": "null", 
      "name": "block3_1_batchnorm2_running_mean", 
      "attrs": {
        "__dtype__": "0", 
        "__init__": "zeros", 
        "__lr_mult__": "1.0", 
        "__shape__": "(128,)", 
        "__storage_type__": "0", 
        "__wd_mult__": "1.0"
      }, 
      "inputs": []
    }, 
    {
      "op": "null", 
      "name": "block3_1_batchnorm2_running_var", 
      "attrs": {
        "__dtype__": "0", 
        "__init__": "ones", 
        "__lr_mult__": "1.0", 
        "__shape__": "(128,)", 
        "__storage_type__": "0", 
        "__wd_mult__": "1.0"
      }, 
      "inputs": []
    }, 
    {
      "op": "BatchNorm", 
      "name": "block3_1_batchnorm2_fwd", 
      "attrs": {
        "axis": "1", 
        "eps": "1e-05", 
        "fix_gamma": "False", 
        "momentum": "0.9", 
        "use_global_stats": "False"
      }, 
      "inputs": [[387, 0, 0], [388, 0, 0], [389, 0, 0], [390, 0, 7], [391, 0, 7]]
    }, 
    {
      "op": "Dropout", 
      "name": "block3_1_dropout2_fwd", 
      "attrs": {
        "axes": "()", 
        "p": "0.2"
      }, 
      "inputs": [[392, 0, 0]]
    }, 
    {
      "op": "null", 
      "name": "block3_1_Mconv4_stage3_L1weight", 
      "attrs": {
        "__dtype__": "0", 
        "__lr_mult__": "1.0", 
        "__shape__": "(128, 128, 7, 7)", 
        "__storage_type__": "0", 
        "__wd_mult__": "1.0"
      }, 
      "inputs": []
    }, 
    {
      "op": "null", 
      "name": "block3_1_Mconv4_stage3_L1bias", 
      "attrs": {
        "__dtype__": "0", 
        "__init__": "zeros", 
        "__lr_mult__": "1.0", 
        "__shape__": "(128,)", 
        "__storage_type__": "0", 
        "__wd_mult__": "1.0"
      }, 
      "inputs": []
    }, 
    {
      "op": "Convolution", 
      "name": "block3_1_Mconv4_stage3_L1fwd", 
      "attrs": {
        "dilate": "(1, 1)", 
        "kernel": "(7, 7)", 
        "layout": "NCHW", 
        "no_bias": "False", 
        "num_filter": "128", 
        "num_group": "1", 
        "pad": "(3, 3)", 
        "stride": "(1, 1)"
      }, 
      "inputs": [[393, 0, 0], [394, 0, 0], [395, 0, 0]]
    }, 
    {
      "op": "Activation", 
      "name": "block3_1_Mconv4_stage3_L1relu_fwd", 
      "attrs": {"act_type": "relu"}, 
      "inputs": [[396, 0, 0]]
    }, 
    {
      "op": "null", 
      "name": "block3_1_batchnorm3_gamma", 
      "attrs": {
        "__dtype__": "0", 
        "__init__": "ones", 
        "__lr_mult__": "1.0", 
        "__shape__": "(128,)", 
        "__storage_type__": "0", 
        "__wd_mult__": "1.0"
      }, 
      "inputs": []
    }, 
    {
      "op": "null", 
      "name": "block3_1_batchnorm3_beta", 
      "attrs": {
        "__dtype__": "0", 
        "__init__": "zeros", 
        "__lr_mult__": "1.0", 
        "__shape__": "(128,)", 
        "__storage_type__": "0", 
        "__wd_mult__": "1.0"
      }, 
      "inputs": []
    }, 
    {
      "op": "null", 
      "name": "block3_1_batchnorm3_running_mean", 
      "attrs": {
        "__dtype__": "0", 
        "__init__": "zeros", 
        "__lr_mult__": "1.0", 
        "__shape__": "(128,)", 
        "__storage_type__": "0", 
        "__wd_mult__": "1.0"
      }, 
      "inputs": []
    }, 
    {
      "op": "null", 
      "name": "block3_1_batchnorm3_running_var", 
      "attrs": {
        "__dtype__": "0", 
        "__init__": "ones", 
        "__lr_mult__": "1.0", 
        "__shape__": "(128,)", 
        "__storage_type__": "0", 
        "__wd_mult__": "1.0"
      }, 
      "inputs": []
    }, 
    {
      "op": "BatchNorm", 
      "name": "block3_1_batchnorm3_fwd", 
      "attrs": {
        "axis": "1", 
        "eps": "1e-05", 
        "fix_gamma": "False", 
        "momentum": "0.9", 
        "use_global_stats": "False"
      }, 
      "inputs": [[397, 0, 0], [398, 0, 0], [399, 0, 0], [400, 0, 7], [401, 0, 7]]
    }, 
    {
      "op": "Dropout", 
      "name": "block3_1_dropout3_fwd", 
      "attrs": {
        "axes": "()", 
        "p": "0.2"
      }, 
      "inputs": [[402, 0, 0]]
    }, 
    {
      "op": "null", 
      "name": "block3_1_Mconv5_stage3_L1weight", 
      "attrs": {
        "__dtype__": "0", 
        "__lr_mult__": "1.0", 
        "__shape__": "(128, 128, 7, 7)", 
        "__storage_type__": "0", 
        "__wd_mult__": "1.0"
      }, 
      "inputs": []
    }, 
    {
      "op": "null", 
      "name": "block3_1_Mconv5_stage3_L1bias", 
      "attrs": {
        "__dtype__": "0", 
        "__init__": "zeros", 
        "__lr_mult__": "1.0", 
        "__shape__": "(128,)", 
        "__storage_type__": "0", 
        "__wd_mult__": "1.0"
      }, 
      "inputs": []
    }, 
    {
      "op": "Convolution", 
      "name": "block3_1_Mconv5_stage3_L1fwd", 
      "attrs": {
        "dilate": "(1, 1)", 
        "kernel": "(7, 7)", 
        "layout": "NCHW", 
        "no_bias": "False", 
        "num_filter": "128", 
        "num_group": "1", 
        "pad": "(3, 3)", 
        "stride": "(1, 1)"
      }, 
      "inputs": [[403, 0, 0], [404, 0, 0], [405, 0, 0]]
    }, 
    {
      "op": "Activation", 
      "name": "block3_1_Mconv5_stage3_L1relu_fwd", 
      "attrs": {"act_type": "relu"}, 
      "inputs": [[406, 0, 0]]
    }, 
    {
      "op": "null", 
      "name": "block3_1_batchnorm4_gamma", 
      "attrs": {
        "__dtype__": "0", 
        "__init__": "ones", 
        "__lr_mult__": "1.0", 
        "__shape__": "(128,)", 
        "__storage_type__": "0", 
        "__wd_mult__": "1.0"
      }, 
      "inputs": []
    }, 
    {
      "op": "null", 
      "name": "block3_1_batchnorm4_beta", 
      "attrs": {
        "__dtype__": "0", 
        "__init__": "zeros", 
        "__lr_mult__": "1.0", 
        "__shape__": "(128,)", 
        "__storage_type__": "0", 
        "__wd_mult__": "1.0"
      }, 
      "inputs": []
    }, 
    {
      "op": "null", 
      "name": "block3_1_batchnorm4_running_mean", 
      "attrs": {
        "__dtype__": "0", 
        "__init__": "zeros", 
        "__lr_mult__": "1.0", 
        "__shape__": "(128,)", 
        "__storage_type__": "0", 
        "__wd_mult__": "1.0"
      }, 
      "inputs": []
    }, 
    {
      "op": "null", 
      "name": "block3_1_batchnorm4_running_var", 
      "attrs": {
        "__dtype__": "0", 
        "__init__": "ones", 
        "__lr_mult__": "1.0", 
        "__shape__": "(128,)", 
        "__storage_type__": "0", 
        "__wd_mult__": "1.0"
      }, 
      "inputs": []
    }, 
    {
      "op": "BatchNorm", 
      "name": "block3_1_batchnorm4_fwd", 
      "attrs": {
        "axis": "1", 
        "eps": "1e-05", 
        "fix_gamma": "False", 
        "momentum": "0.9", 
        "use_global_stats": "False"
      }, 
      "inputs": [[407, 0, 0], [408, 0, 0], [409, 0, 0], [410, 0, 7], [411, 0, 7]]
    }, 
    {
      "op": "Dropout", 
      "name": "block3_1_dropout4_fwd", 
      "attrs": {
        "axes": "()", 
        "p": "0.2"
      }, 
      "inputs": [[412, 0, 0]]
    }, 
    {
      "op": "null", 
      "name": "block3_1_Mconv6_stage3_L1weight", 
      "attrs": {
        "__dtype__": "0", 
        "__lr_mult__": "1.0", 
        "__shape__": "(128, 128, 1, 1)", 
        "__storage_type__": "0", 
        "__wd_mult__": "1.0"
      }, 
      "inputs": []
    }, 
    {
      "op": "null", 
      "name": "block3_1_Mconv6_stage3_L1bias", 
      "attrs": {
        "__dtype__": "0", 
        "__init__": "zeros", 
        "__lr_mult__": "1.0", 
        "__shape__": "(128,)", 
        "__storage_type__": "0", 
        "__wd_mult__": "1.0"
      }, 
      "inputs": []
    }, 
    {
      "op": "Convolution", 
      "name": "block3_1_Mconv6_stage3_L1fwd", 
      "attrs": {
        "dilate": "(1, 1)", 
        "kernel": "(1, 1)", 
        "layout": "NCHW", 
        "no_bias": "False", 
        "num_filter": "128", 
        "num_group": "1", 
        "pad": "(0, 0)", 
        "stride": "(1, 1)"
      }, 
      "inputs": [[413, 0, 0], [414, 0, 0], [415, 0, 0]]
    }, 
    {
      "op": "Activation", 
      "name": "block3_1_Mconv6_stage3_L1relu_fwd", 
      "attrs": {"act_type": "relu"}, 
      "inputs": [[416, 0, 0]]
    }, 
    {
      "op": "null", 
      "name": "block3_1_batchnorm5_gamma", 
      "attrs": {
        "__dtype__": "0", 
        "__init__": "ones", 
        "__lr_mult__": "1.0", 
        "__shape__": "(128,)", 
        "__storage_type__": "0", 
        "__wd_mult__": "1.0"
      }, 
      "inputs": []
    }, 
    {
      "op": "null", 
      "name": "block3_1_batchnorm5_beta", 
      "attrs": {
        "__dtype__": "0", 
        "__init__": "zeros", 
        "__lr_mult__": "1.0", 
        "__shape__": "(128,)", 
        "__storage_type__": "0", 
        "__wd_mult__": "1.0"
      }, 
      "inputs": []
    }, 
    {
      "op": "null", 
      "name": "block3_1_batchnorm5_running_mean", 
      "attrs": {
        "__dtype__": "0", 
        "__init__": "zeros", 
        "__lr_mult__": "1.0", 
        "__shape__": "(128,)", 
        "__storage_type__": "0", 
        "__wd_mult__": "1.0"
      }, 
      "inputs": []
    }, 
    {
      "op": "null", 
      "name": "block3_1_batchnorm5_running_var", 
      "attrs": {
        "__dtype__": "0", 
        "__init__": "ones", 
        "__lr_mult__": "1.0", 
        "__shape__": "(128,)", 
        "__storage_type__": "0", 
        "__wd_mult__": "1.0"
      }, 
      "inputs": []
    }, 
    {
      "op": "BatchNorm", 
      "name": "block3_1_batchnorm5_fwd", 
      "attrs": {
        "axis": "1", 
        "eps": "1e-05", 
        "fix_gamma": "False", 
        "momentum": "0.9", 
        "use_global_stats": "False"
      }, 
      "inputs": [[417, 0, 0], [418, 0, 0], [419, 0, 0], [420, 0, 7], [421, 0, 7]]
    }, 
    {
      "op": "Dropout", 
      "name": "block3_1_dropout5_fwd", 
      "attrs": {
        "axes": "()", 
        "p": "0.2"
      }, 
      "inputs": [[422, 0, 0]]
    }, 
    {
      "op": "null", 
      "name": "block3_1_Mconv7_stage3_L1weight", 
      "attrs": {
        "__dtype__": "0", 
        "__lr_mult__": "1.0", 
        "__shape__": "(38, 128, 1, 1)", 
        "__storage_type__": "0", 
        "__wd_mult__": "1.0"
      }, 
      "inputs": []
    }, 
    {
      "op": "null", 
      "name": "block3_1_Mconv7_stage3_L1bias", 
      "attrs": {
        "__dtype__": "0", 
        "__init__": "zeros", 
        "__lr_mult__": "1.0", 
        "__shape__": "(38,)", 
        "__storage_type__": "0", 
        "__wd_mult__": "1.0"
      }, 
      "inputs": []
    }, 
    {
      "op": "Convolution", 
      "name": "block3_1_Mconv7_stage3_L1fwd", 
      "attrs": {
        "dilate": "(1, 1)", 
        "kernel": "(1, 1)", 
        "layout": "NCHW", 
        "no_bias": "False", 
        "num_filter": "38", 
        "num_group": "1", 
        "pad": "(0, 0)", 
        "stride": "(1, 1)"
      }, 
      "inputs": [[423, 0, 0], [424, 0, 0], [425, 0, 0]]
    }, 
    {
      "op": "null", 
      "name": "block3_2_Mconv1_stage3_L2weight", 
      "attrs": {
        "__dtype__": "0", 
        "__lr_mult__": "1.0", 
        "__shape__": "(128, 73, 7, 7)", 
        "__storage_type__": "0", 
        "__wd_mult__": "1.0"
      }, 
      "inputs": []
    }, 
    {
      "op": "null", 
      "name": "block3_2_Mconv1_stage3_L2bias", 
      "attrs": {
        "__dtype__": "0", 
        "__init__": "zeros", 
        "__lr_mult__": "1.0", 
        "__shape__": "(128,)", 
        "__storage_type__": "0", 
        "__wd_mult__": "1.0"
      }, 
      "inputs": []
    }, 
    {
      "op": "Convolution", 
      "name": "block3_2_Mconv1_stage3_L2fwd", 
      "attrs": {
        "dilate": "(1, 1)", 
        "kernel": "(7, 7)", 
        "layout": "NCHW", 
        "no_bias": "False", 
        "num_filter": "128", 
        "num_group": "1", 
        "pad": "(3, 3)", 
        "stride": "(1, 1)"
      }, 
      "inputs": [[363, 0, 0], [427, 0, 0], [428, 0, 0]]
    }, 
    {
      "op": "Activation", 
      "name": "block3_2_Mconv1_stage3_L2relu_fwd", 
      "attrs": {"act_type": "relu"}, 
      "inputs": [[429, 0, 0]]
    }, 
    {
      "op": "null", 
      "name": "block3_2_batchnorm0_gamma", 
      "attrs": {
        "__dtype__": "0", 
        "__init__": "ones", 
        "__lr_mult__": "1.0", 
        "__shape__": "(128,)", 
        "__storage_type__": "0", 
        "__wd_mult__": "1.0"
      }, 
      "inputs": []
    }, 
    {
      "op": "null", 
      "name": "block3_2_batchnorm0_beta", 
      "attrs": {
        "__dtype__": "0", 
        "__init__": "zeros", 
        "__lr_mult__": "1.0", 
        "__shape__": "(128,)", 
        "__storage_type__": "0", 
        "__wd_mult__": "1.0"
      }, 
      "inputs": []
    }, 
    {
      "op": "null", 
      "name": "block3_2_batchnorm0_running_mean", 
      "attrs": {
        "__dtype__": "0", 
        "__init__": "zeros", 
        "__lr_mult__": "1.0", 
        "__shape__": "(128,)", 
        "__storage_type__": "0", 
        "__wd_mult__": "1.0"
      }, 
      "inputs": []
    }, 
    {
      "op": "null", 
      "name": "block3_2_batchnorm0_running_var", 
      "attrs": {
        "__dtype__": "0", 
        "__init__": "ones", 
        "__lr_mult__": "1.0", 
        "__shape__": "(128,)", 
        "__storage_type__": "0", 
        "__wd_mult__": "1.0"
      }, 
      "inputs": []
    }, 
    {
      "op": "BatchNorm", 
      "name": "block3_2_batchnorm0_fwd", 
      "attrs": {
        "axis": "1", 
        "eps": "1e-05", 
        "fix_gamma": "False", 
        "momentum": "0.9", 
        "use_global_stats": "False"
      }, 
      "inputs": [[430, 0, 0], [431, 0, 0], [432, 0, 0], [433, 0, 7], [434, 0, 7]]
    }, 
    {
      "op": "Dropout", 
      "name": "block3_2_dropout0_fwd", 
      "attrs": {
        "axes": "()", 
        "p": "0.2"
      }, 
      "inputs": [[435, 0, 0]]
    }, 
    {
      "op": "null", 
      "name": "block3_2_Mconv2_stage3_L2weight", 
      "attrs": {
        "__dtype__": "0", 
        "__lr_mult__": "1.0", 
        "__shape__": "(128, 128, 7, 7)", 
        "__storage_type__": "0", 
        "__wd_mult__": "1.0"
      }, 
      "inputs": []
    }, 
    {
      "op": "null", 
      "name": "block3_2_Mconv2_stage3_L2bias", 
      "attrs": {
        "__dtype__": "0", 
        "__init__": "zeros", 
        "__lr_mult__": "1.0", 
        "__shape__": "(128,)", 
        "__storage_type__": "0", 
        "__wd_mult__": "1.0"
      }, 
      "inputs": []
    }, 
    {
      "op": "Convolution", 
      "name": "block3_2_Mconv2_stage3_L2fwd", 
      "attrs": {
        "dilate": "(1, 1)", 
        "kernel": "(7, 7)", 
        "layout": "NCHW", 
        "no_bias": "False", 
        "num_filter": "128", 
        "num_group": "1", 
        "pad": "(3, 3)", 
        "stride": "(1, 1)"
      }, 
      "inputs": [[436, 0, 0], [437, 0, 0], [438, 0, 0]]
    }, 
    {
      "op": "Activation", 
      "name": "block3_2_Mconv2_stage3_L2relu_fwd", 
      "attrs": {"act_type": "relu"}, 
      "inputs": [[439, 0, 0]]
    }, 
    {
      "op": "null", 
      "name": "block3_2_batchnorm1_gamma", 
      "attrs": {
        "__dtype__": "0", 
        "__init__": "ones", 
        "__lr_mult__": "1.0", 
        "__shape__": "(128,)", 
        "__storage_type__": "0", 
        "__wd_mult__": "1.0"
      }, 
      "inputs": []
    }, 
    {
      "op": "null", 
      "name": "block3_2_batchnorm1_beta", 
      "attrs": {
        "__dtype__": "0", 
        "__init__": "zeros", 
        "__lr_mult__": "1.0", 
        "__shape__": "(128,)", 
        "__storage_type__": "0", 
        "__wd_mult__": "1.0"
      }, 
      "inputs": []
    }, 
    {
      "op": "null", 
      "name": "block3_2_batchnorm1_running_mean", 
      "attrs": {
        "__dtype__": "0", 
        "__init__": "zeros", 
        "__lr_mult__": "1.0", 
        "__shape__": "(128,)", 
        "__storage_type__": "0", 
        "__wd_mult__": "1.0"
      }, 
      "inputs": []
    }, 
    {
      "op": "null", 
      "name": "block3_2_batchnorm1_running_var", 
      "attrs": {
        "__dtype__": "0", 
        "__init__": "ones", 
        "__lr_mult__": "1.0", 
        "__shape__": "(128,)", 
        "__storage_type__": "0", 
        "__wd_mult__": "1.0"
      }, 
      "inputs": []
    }, 
    {
      "op": "BatchNorm", 
      "name": "block3_2_batchnorm1_fwd", 
      "attrs": {
        "axis": "1", 
        "eps": "1e-05", 
        "fix_gamma": "False", 
        "momentum": "0.9", 
        "use_global_stats": "False"
      }, 
      "inputs": [[440, 0, 0], [441, 0, 0], [442, 0, 0], [443, 0, 7], [444, 0, 7]]
    }, 
    {
      "op": "Dropout", 
      "name": "block3_2_dropout1_fwd", 
      "attrs": {
        "axes": "()", 
        "p": "0.2"
      }, 
      "inputs": [[445, 0, 0]]
    }, 
    {
      "op": "null", 
      "name": "block3_2_Mconv3_stage3_L2weight", 
      "attrs": {
        "__dtype__": "0", 
        "__lr_mult__": "1.0", 
        "__shape__": "(128, 128, 7, 7)", 
        "__storage_type__": "0", 
        "__wd_mult__": "1.0"
      }, 
      "inputs": []
    }, 
    {
      "op": "null", 
      "name": "block3_2_Mconv3_stage3_L2bias", 
      "attrs": {
        "__dtype__": "0", 
        "__init__": "zeros", 
        "__lr_mult__": "1.0", 
        "__shape__": "(128,)", 
        "__storage_type__": "0", 
        "__wd_mult__": "1.0"
      }, 
      "inputs": []
    }, 
    {
      "op": "Convolution", 
      "name": "block3_2_Mconv3_stage3_L2fwd", 
      "attrs": {
        "dilate": "(1, 1)", 
        "kernel": "(7, 7)", 
        "layout": "NCHW", 
        "no_bias": "False", 
        "num_filter": "128", 
        "num_group": "1", 
        "pad": "(3, 3)", 
        "stride": "(1, 1)"
      }, 
      "inputs": [[446, 0, 0], [447, 0, 0], [448, 0, 0]]
    }, 
    {
      "op": "Activation", 
      "name": "block3_2_Mconv3_stage3_L2relu_fwd", 
      "attrs": {"act_type": "relu"}, 
      "inputs": [[449, 0, 0]]
    }, 
    {
      "op": "null", 
      "name": "block3_2_batchnorm2_gamma", 
      "attrs": {
        "__dtype__": "0", 
        "__init__": "ones", 
        "__lr_mult__": "1.0", 
        "__shape__": "(128,)", 
        "__storage_type__": "0", 
        "__wd_mult__": "1.0"
      }, 
      "inputs": []
    }, 
    {
      "op": "null", 
      "name": "block3_2_batchnorm2_beta", 
      "attrs": {
        "__dtype__": "0", 
        "__init__": "zeros", 
        "__lr_mult__": "1.0", 
        "__shape__": "(128,)", 
        "__storage_type__": "0", 
        "__wd_mult__": "1.0"
      }, 
      "inputs": []
    }, 
    {
      "op": "null", 
      "name": "block3_2_batchnorm2_running_mean", 
      "attrs": {
        "__dtype__": "0", 
        "__init__": "zeros", 
        "__lr_mult__": "1.0", 
        "__shape__": "(128,)", 
        "__storage_type__": "0", 
        "__wd_mult__": "1.0"
      }, 
      "inputs": []
    }, 
    {
      "op": "null", 
      "name": "block3_2_batchnorm2_running_var", 
      "attrs": {
        "__dtype__": "0", 
        "__init__": "ones", 
        "__lr_mult__": "1.0", 
        "__shape__": "(128,)", 
        "__storage_type__": "0", 
        "__wd_mult__": "1.0"
      }, 
      "inputs": []
    }, 
    {
      "op": "BatchNorm", 
      "name": "block3_2_batchnorm2_fwd", 
      "attrs": {
        "axis": "1", 
        "eps": "1e-05", 
        "fix_gamma": "False", 
        "momentum": "0.9", 
        "use_global_stats": "False"
      }, 
      "inputs": [[450, 0, 0], [451, 0, 0], [452, 0, 0], [453, 0, 7], [454, 0, 7]]
    }, 
    {
      "op": "Dropout", 
      "name": "block3_2_dropout2_fwd", 
      "attrs": {
        "axes": "()", 
        "p": "0.2"
      }, 
      "inputs": [[455, 0, 0]]
    }, 
    {
      "op": "null", 
      "name": "block3_2_Mconv4_stage3_L2weight", 
      "attrs": {
        "__dtype__": "0", 
        "__lr_mult__": "1.0", 
        "__shape__": "(128, 128, 7, 7)", 
        "__storage_type__": "0", 
        "__wd_mult__": "1.0"
      }, 
      "inputs": []
    }, 
    {
      "op": "null", 
      "name": "block3_2_Mconv4_stage3_L2bias", 
      "attrs": {
        "__dtype__": "0", 
        "__init__": "zeros", 
        "__lr_mult__": "1.0", 
        "__shape__": "(128,)", 
        "__storage_type__": "0", 
        "__wd_mult__": "1.0"
      }, 
      "inputs": []
    }, 
    {
      "op": "Convolution", 
      "name": "block3_2_Mconv4_stage3_L2fwd", 
      "attrs": {
        "dilate": "(1, 1)", 
        "kernel": "(7, 7)", 
        "layout": "NCHW", 
        "no_bias": "False", 
        "num_filter": "128", 
        "num_group": "1", 
        "pad": "(3, 3)", 
        "stride": "(1, 1)"
      }, 
      "inputs": [[456, 0, 0], [457, 0, 0], [458, 0, 0]]
    }, 
    {
      "op": "Activation", 
      "name": "block3_2_Mconv4_stage3_L2relu_fwd", 
      "attrs": {"act_type": "relu"}, 
      "inputs": [[459, 0, 0]]
    }, 
    {
      "op": "null", 
      "name": "block3_2_batchnorm3_gamma", 
      "attrs": {
        "__dtype__": "0", 
        "__init__": "ones", 
        "__lr_mult__": "1.0", 
        "__shape__": "(128,)", 
        "__storage_type__": "0", 
        "__wd_mult__": "1.0"
      }, 
      "inputs": []
    }, 
    {
      "op": "null", 
      "name": "block3_2_batchnorm3_beta", 
      "attrs": {
        "__dtype__": "0", 
        "__init__": "zeros", 
        "__lr_mult__": "1.0", 
        "__shape__": "(128,)", 
        "__storage_type__": "0", 
        "__wd_mult__": "1.0"
      }, 
      "inputs": []
    }, 
    {
      "op": "null", 
      "name": "block3_2_batchnorm3_running_mean", 
      "attrs": {
        "__dtype__": "0", 
        "__init__": "zeros", 
        "__lr_mult__": "1.0", 
        "__shape__": "(128,)", 
        "__storage_type__": "0", 
        "__wd_mult__": "1.0"
      }, 
      "inputs": []
    }, 
    {
      "op": "null", 
      "name": "block3_2_batchnorm3_running_var", 
      "attrs": {
        "__dtype__": "0", 
        "__init__": "ones", 
        "__lr_mult__": "1.0", 
        "__shape__": "(128,)", 
        "__storage_type__": "0", 
        "__wd_mult__": "1.0"
      }, 
      "inputs": []
    }, 
    {
      "op": "BatchNorm", 
      "name": "block3_2_batchnorm3_fwd", 
      "attrs": {
        "axis": "1", 
        "eps": "1e-05", 
        "fix_gamma": "False", 
        "momentum": "0.9", 
        "use_global_stats": "False"
      }, 
      "inputs": [[460, 0, 0], [461, 0, 0], [462, 0, 0], [463, 0, 7], [464, 0, 7]]
    }, 
    {
      "op": "Dropout", 
      "name": "block3_2_dropout3_fwd", 
      "attrs": {
        "axes": "()", 
        "p": "0.2"
      }, 
      "inputs": [[465, 0, 0]]
    }, 
    {
      "op": "null", 
      "name": "block3_2_Mconv5_stage3_L2weight", 
      "attrs": {
        "__dtype__": "0", 
        "__lr_mult__": "1.0", 
        "__shape__": "(128, 128, 7, 7)", 
        "__storage_type__": "0", 
        "__wd_mult__": "1.0"
      }, 
      "inputs": []
    }, 
    {
      "op": "null", 
      "name": "block3_2_Mconv5_stage3_L2bias", 
      "attrs": {
        "__dtype__": "0", 
        "__init__": "zeros", 
        "__lr_mult__": "1.0", 
        "__shape__": "(128,)", 
        "__storage_type__": "0", 
        "__wd_mult__": "1.0"
      }, 
      "inputs": []
    }, 
    {
      "op": "Convolution", 
      "name": "block3_2_Mconv5_stage3_L2fwd", 
      "attrs": {
        "dilate": "(1, 1)", 
        "kernel": "(7, 7)", 
        "layout": "NCHW", 
        "no_bias": "False", 
        "num_filter": "128", 
        "num_group": "1", 
        "pad": "(3, 3)", 
        "stride": "(1, 1)"
      }, 
      "inputs": [[466, 0, 0], [467, 0, 0], [468, 0, 0]]
    }, 
    {
      "op": "Activation", 
      "name": "block3_2_Mconv5_stage3_L2relu_fwd", 
      "attrs": {"act_type": "relu"}, 
      "inputs": [[469, 0, 0]]
    }, 
    {
      "op": "null", 
      "name": "block3_2_batchnorm4_gamma", 
      "attrs": {
        "__dtype__": "0", 
        "__init__": "ones", 
        "__lr_mult__": "1.0", 
        "__shape__": "(128,)", 
        "__storage_type__": "0", 
        "__wd_mult__": "1.0"
      }, 
      "inputs": []
    }, 
    {
      "op": "null", 
      "name": "block3_2_batchnorm4_beta", 
      "attrs": {
        "__dtype__": "0", 
        "__init__": "zeros", 
        "__lr_mult__": "1.0", 
        "__shape__": "(128,)", 
        "__storage_type__": "0", 
        "__wd_mult__": "1.0"
      }, 
      "inputs": []
    }, 
    {
      "op": "null", 
      "name": "block3_2_batchnorm4_running_mean", 
      "attrs": {
        "__dtype__": "0", 
        "__init__": "zeros", 
        "__lr_mult__": "1.0", 
        "__shape__": "(128,)", 
        "__storage_type__": "0", 
        "__wd_mult__": "1.0"
      }, 
      "inputs": []
    }, 
    {
      "op": "null", 
      "name": "block3_2_batchnorm4_running_var", 
      "attrs": {
        "__dtype__": "0", 
        "__init__": "ones", 
        "__lr_mult__": "1.0", 
        "__shape__": "(128,)", 
        "__storage_type__": "0", 
        "__wd_mult__": "1.0"
      }, 
      "inputs": []
    }, 
    {
      "op": "BatchNorm", 
      "name": "block3_2_batchnorm4_fwd", 
      "attrs": {
        "axis": "1", 
        "eps": "1e-05", 
        "fix_gamma": "False", 
        "momentum": "0.9", 
        "use_global_stats": "False"
      }, 
      "inputs": [[470, 0, 0], [471, 0, 0], [472, 0, 0], [473, 0, 7], [474, 0, 7]]
    }, 
    {
      "op": "Dropout", 
      "name": "block3_2_dropout4_fwd", 
      "attrs": {
        "axes": "()", 
        "p": "0.2"
      }, 
      "inputs": [[475, 0, 0]]
    }, 
    {
      "op": "null", 
      "name": "block3_2_Mconv6_stage3_L2weight", 
      "attrs": {
        "__dtype__": "0", 
        "__lr_mult__": "1.0", 
        "__shape__": "(128, 128, 1, 1)", 
        "__storage_type__": "0", 
        "__wd_mult__": "1.0"
      }, 
      "inputs": []
    }, 
    {
      "op": "null", 
      "name": "block3_2_Mconv6_stage3_L2bias", 
      "attrs": {
        "__dtype__": "0", 
        "__init__": "zeros", 
        "__lr_mult__": "1.0", 
        "__shape__": "(128,)", 
        "__storage_type__": "0", 
        "__wd_mult__": "1.0"
      }, 
      "inputs": []
    }, 
    {
      "op": "Convolution", 
      "name": "block3_2_Mconv6_stage3_L2fwd", 
      "attrs": {
        "dilate": "(1, 1)", 
        "kernel": "(1, 1)", 
        "layout": "NCHW", 
        "no_bias": "False", 
        "num_filter": "128", 
        "num_group": "1", 
        "pad": "(0, 0)", 
        "stride": "(1, 1)"
      }, 
      "inputs": [[476, 0, 0], [477, 0, 0], [478, 0, 0]]
    }, 
    {
      "op": "Activation", 
      "name": "block3_2_Mconv6_stage3_L2relu_fwd", 
      "attrs": {"act_type": "relu"}, 
      "inputs": [[479, 0, 0]]
    }, 
    {
      "op": "null", 
      "name": "block3_2_batchnorm5_gamma", 
      "attrs": {
        "__dtype__": "0", 
        "__init__": "ones", 
        "__lr_mult__": "1.0", 
        "__shape__": "(128,)", 
        "__storage_type__": "0", 
        "__wd_mult__": "1.0"
      }, 
      "inputs": []
    }, 
    {
      "op": "null", 
      "name": "block3_2_batchnorm5_beta", 
      "attrs": {
        "__dtype__": "0", 
        "__init__": "zeros", 
        "__lr_mult__": "1.0", 
        "__shape__": "(128,)", 
        "__storage_type__": "0", 
        "__wd_mult__": "1.0"
      }, 
      "inputs": []
    }, 
    {
      "op": "null", 
      "name": "block3_2_batchnorm5_running_mean", 
      "attrs": {
        "__dtype__": "0", 
        "__init__": "zeros", 
        "__lr_mult__": "1.0", 
        "__shape__": "(128,)", 
        "__storage_type__": "0", 
        "__wd_mult__": "1.0"
      }, 
      "inputs": []
    }, 
    {
      "op": "null", 
      "name": "block3_2_batchnorm5_running_var", 
      "attrs": {
        "__dtype__": "0", 
        "__init__": "ones", 
        "__lr_mult__": "1.0", 
        "__shape__": "(128,)", 
        "__storage_type__": "0", 
        "__wd_mult__": "1.0"
      }, 
      "inputs": []
    }, 
    {
      "op": "BatchNorm", 
      "name": "block3_2_batchnorm5_fwd", 
      "attrs": {
        "axis": "1", 
        "eps": "1e-05", 
        "fix_gamma": "False", 
        "momentum": "0.9", 
        "use_global_stats": "False"
      }, 
      "inputs": [[480, 0, 0], [481, 0, 0], [482, 0, 0], [483, 0, 7], [484, 0, 7]]
    }, 
    {
      "op": "Dropout", 
      "name": "block3_2_dropout5_fwd", 
      "attrs": {
        "axes": "()", 
        "p": "0.2"
      }, 
      "inputs": [[485, 0, 0]]
    }, 
    {
      "op": "null", 
      "name": "block3_2_Mconv7_stage3_L2weight", 
      "attrs": {
        "__dtype__": "0", 
        "__lr_mult__": "1.0", 
        "__shape__": "(19, 128, 1, 1)", 
        "__storage_type__": "0", 
        "__wd_mult__": "1.0"
      }, 
      "inputs": []
    }, 
    {
      "op": "null", 
      "name": "block3_2_Mconv7_stage3_L2bias", 
      "attrs": {
        "__dtype__": "0", 
        "__init__": "zeros", 
        "__lr_mult__": "1.0", 
        "__shape__": "(19,)", 
        "__storage_type__": "0", 
        "__wd_mult__": "1.0"
      }, 
      "inputs": []
    }, 
    {
      "op": "Convolution", 
      "name": "block3_2_Mconv7_stage3_L2fwd", 
      "attrs": {
        "dilate": "(1, 1)", 
        "kernel": "(1, 1)", 
        "layout": "NCHW", 
        "no_bias": "False", 
        "num_filter": "19", 
        "num_group": "1", 
        "pad": "(0, 0)", 
        "stride": "(1, 1)"
      }, 
      "inputs": [[486, 0, 0], [487, 0, 0], [488, 0, 0]]
    }, 
    {
      "op": "Concat", 
      "name": "rtpose0_concat2", 
      "attrs": {
        "dim": "1", 
        "num_args": "3"
      }, 
      "inputs": [[426, 0, 0], [489, 0, 0], [149, 0, 0]]
    }, 
    {
      "op": "null", 
      "name": "block4_1_Mconv1_stage4_L1weight", 
      "attrs": {
        "__dtype__": "0", 
        "__lr_mult__": "1.0", 
        "__shape__": "(128, 73, 7, 7)", 
        "__storage_type__": "0", 
        "__wd_mult__": "1.0"
      }, 
      "inputs": []
    }, 
    {
      "op": "null", 
      "name": "block4_1_Mconv1_stage4_L1bias", 
      "attrs": {
        "__dtype__": "0", 
        "__init__": "zeros", 
        "__lr_mult__": "1.0", 
        "__shape__": "(128,)", 
        "__storage_type__": "0", 
        "__wd_mult__": "1.0"
      }, 
      "inputs": []
    }, 
    {
      "op": "Convolution", 
      "name": "block4_1_Mconv1_stage4_L1fwd", 
      "attrs": {
        "dilate": "(1, 1)", 
        "kernel": "(7, 7)", 
        "layout": "NCHW", 
        "no_bias": "False", 
…
        "__shape__": "(128, 73, 7, 7)", 
        "__storage_type__": "0", 
        "__wd_mult__": "1.0"
      }, 
      "inputs": []
    }, 
    {
      "op": "null", 
      "name": "block5_2_Mconv1_stage5_L2bias", 
      "attrs": {
        "__dtype__": "0", 
        "__init__": "zeros", 
        "__lr_mult__": "1.0", 
        "__shape__": "(128,)", 
        "__storage_type__": "0", 
        "__wd_mult__": "1.0"
      }, 
      "inputs": []
    }, 
    {
      "op": "Convolution", 
      "name": "block5_2_Mconv1_stage5_L2fwd", 
      "attrs": {
        "dilate": "(1, 1)", 
        "kernel": "(7, 7)", 
        "layout": "NCHW", 
        "no_bias": "False", 
        "num_filter": "128", 
        "num_group": "1", 
        "pad": "(3, 3)", 
        "stride": "(1, 1)"
      }, 
      "inputs": [[617, 0, 0], [681, 0, 0], [682, 0, 0]]
    }, 
    {
      "op": "Activation", 
      "name": "block5_2_Mconv1_stage5_L2relu_fwd", 
      "attrs": {"act_type": "relu"}, 
      "inputs": [[683, 0, 0]]
    }, 
    {
      "op": "null", 
      "name": "block5_2_batchnorm0_gamma", 
      "attrs": {
        "__dtype__": "0", 
        "__init__": "ones", 
        "__lr_mult__": "1.0", 
        "__shape__": "(128,)", 
        "__storage_type__": "0", 
        "__wd_mult__": "1.0"
      }, 
      "inputs": []
    }, 
    {
      "op": "null", 
      "name": "block5_2_batchnorm0_beta", 
      "attrs": {
        "__dtype__": "0", 
        "__init__": "zeros", 
        "__lr_mult__": "1.0", 
        "__shape__": "(128,)", 
        "__storage_type__": "0", 
        "__wd_mult__": "1.0"
      }, 
      "inputs": []
    }, 
    {
      "op": "null", 
      "name": "block5_2_batchnorm0_running_mean", 
      "attrs": {
        "__dtype__": "0", 
        "__init__": "zeros", 
        "__lr_mult__": "1.0", 
        "__shape__": "(128,)", 
        "__storage_type__": "0", 
        "__wd_mult__": "1.0"
      }, 
      "inputs": []
    }, 
    {
      "op": "null", 
      "name": "block5_2_batchnorm0_running_var", 
      "attrs": {
        "__dtype__": "0", 
        "__init__": "ones", 
        "__lr_mult__": "1.0", 
        "__shape__": "(128,)", 
        "__storage_type__": "0", 
        "__wd_mult__": "1.0"
      }, 
      "inputs": []
    }, 
    {
      "op": "BatchNorm", 
      "name": "block5_2_batchnorm0_fwd", 
      "attrs": {
        "axis": "1", 
        "eps": "1e-05", 
        "fix_gamma": "False", 
        "momentum": "0.9", 
        "use_global_stats": "False"
      }, 
      "inputs": [[684, 0, 0], [685, 0, 0], [686, 0, 0], [687, 0, 7], [688, 0, 7]]
    }, 
    {
      "op": "Dropout", 
      "name": "block5_2_dropout0_fwd", 
      "attrs": {
        "axes": "()", 
        "p": "0.2"
      }, 
      "inputs": [[689, 0, 0]]
    }, 
    {
      "op": "null", 
      "name": "block5_2_Mconv2_stage5_L2weight", 
      "attrs": {
        "__dtype__": "0", 
        "__lr_mult__": "1.0", 
        "__shape__": "(128, 128, 7, 7)", 
        "__storage_type__": "0", 
        "__wd_mult__": "1.0"
      }, 
      "inputs": []
    }, 
    {
      "op": "null", 
      "name": "block5_2_Mconv2_stage5_L2bias", 
      "attrs": {
        "__dtype__": "0", 
        "__init__": "zeros", 
        "__lr_mult__": "1.0", 
        "__shape__": "(128,)", 
        "__storage_type__": "0", 
        "__wd_mult__": "1.0"
      }, 
      "inputs": []
    }, 
    {
      "op": "Convolution", 
      "name": "block5_2_Mconv2_stage5_L2fwd", 
      "attrs": {
        "dilate": "(1, 1)", 
        "kernel": "(7, 7)", 
        "layout": "NCHW", 
        "no_bias": "False", 
        "num_filter": "128", 
        "num_group": "1", 
        "pad": "(3, 3)", 
        "stride": "(1, 1)"
      }, 
      "inputs": [[690, 0, 0], [691, 0, 0], [692, 0, 0]]
    }, 
    {
      "op": "Activation", 
      "name": "block5_2_Mconv2_stage5_L2relu_fwd", 
      "attrs": {"act_type": "relu"}, 
      "inputs": [[693, 0, 0]]
    }, 
    {
      "op": "null", 
      "name": "block5_2_batchnorm1_gamma", 
      "attrs": {
        "__dtype__": "0", 
        "__init__": "ones", 
        "__lr_mult__": "1.0", 
        "__shape__": "(128,)", 
        "__storage_type__": "0", 
        "__wd_mult__": "1.0"
      }, 
      "inputs": []
    }, 
    {
      "op": "null", 
      "name": "block5_2_batchnorm1_beta", 
      "attrs": {
        "__dtype__": "0", 
        "__init__": "zeros", 
        "__lr_mult__": "1.0", 
        "__shape__": "(128,)", 
        "__storage_type__": "0", 
        "__wd_mult__": "1.0"
      }, 
      "inputs": []
    }, 
    {
      "op": "null", 
      "name": "block5_2_batchnorm1_running_mean", 
      "attrs": {
        "__dtype__": "0", 
        "__init__": "zeros", 
        "__lr_mult__": "1.0", 
        "__shape__": "(128,)", 
        "__storage_type__": "0", 
        "__wd_mult__": "1.0"
      }, 
      "inputs": []
    }, 
    {
      "op": "null", 
      "name": "block5_2_batchnorm1_running_var", 
      "attrs": {
        "__dtype__": "0", 
        "__init__": "ones", 
        "__lr_mult__": "1.0", 
        "__shape__": "(128,)", 
        "__storage_type__": "0", 
        "__wd_mult__": "1.0"
      }, 
      "inputs": []
    }, 
    {
      "op": "BatchNorm", 
      "name": "block5_2_batchnorm1_fwd", 
      "attrs": {
        "axis": "1", 
        "eps": "1e-05", 
        "fix_gamma": "False", 
        "momentum": "0.9", 
        "use_global_stats": "False"
      }, 
      "inputs": [[694, 0, 0], [695, 0, 0], [696, 0, 0], [697, 0, 7], [698, 0, 7]]
    }, 
    {
      "op": "Dropout", 
      "name": "block5_2_dropout1_fwd", 
      "attrs": {
        "axes": "()", 
        "p": "0.2"
      }, 
      "inputs": [[699, 0, 0]]
    }, 
    {
      "op": "null", 
      "name": "block5_2_Mconv3_stage5_L2weight", 
      "attrs": {
        "__dtype__": "0", 
        "__lr_mult__": "1.0", 
        "__shape__": "(128, 128, 7, 7)", 
        "__storage_type__": "0", 
        "__wd_mult__": "1.0"
      }, 
      "inputs": []
    }, 
    {
      "op": "null", 
      "name": "block5_2_Mconv3_stage5_L2bias", 
      "attrs": {
        "__dtype__": "0", 
        "__init__": "zeros", 
        "__lr_mult__": "1.0", 
        "__shape__": "(128,)", 
        "__storage_type__": "0", 
        "__wd_mult__": "1.0"
      }, 
      "inputs": []
    }, 
    {
      "op": "Convolution", 
      "name": "block5_2_Mconv3_stage5_L2fwd", 
      "attrs": {
        "dilate": "(1, 1)", 
        "kernel": "(7, 7)", 
        "layout": "NCHW", 
        "no_bias": "False", 
        "num_filter": "128", 
        "num_group": "1", 
        "pad": "(3, 3)", 
        "stride": "(1, 1)"
      }, 
      "inputs": [[700, 0, 0], [701, 0, 0], [702, 0, 0]]
    }, 
    {
      "op": "Activation", 
      "name": "block5_2_Mconv3_stage5_L2relu_fwd", 
      "attrs": {"act_type": "relu"}, 
      "inputs": [[703, 0, 0]]
    }, 
    {
      "op": "null", 
      "name": "block5_2_batchnorm2_gamma", 
      "attrs": {
        "__dtype__": "0", 
        "__init__": "ones", 
        "__lr_mult__": "1.0", 
        "__shape__": "(128,)", 
        "__storage_type__": "0", 
        "__wd_mult__": "1.0"
      }, 
      "inputs": []
    }, 
    {
      "op": "null", 
      "name": "block5_2_batchnorm2_beta", 
      "attrs": {
        "__dtype__": "0", 
        "__init__": "zeros", 
        "__lr_mult__": "1.0", 
        "__shape__": "(128,)", 
        "__storage_type__": "0", 
        "__wd_mult__": "1.0"
      }, 
      "inputs": []
    }, 
    {
      "op": "null", 
      "name": "block5_2_batchnorm2_running_mean", 
      "attrs": {
        "__dtype__": "0", 
        "__init__": "zeros", 
        "__lr_mult__": "1.0", 
        "__shape__": "(128,)", 
        "__storage_type__": "0", 
        "__wd_mult__": "1.0"
      }, 
      "inputs": []
    }, 
    {
      "op": "null", 
      "name": "block5_2_batchnorm2_running_var", 
      "attrs": {
        "__dtype__": "0", 
        "__init__": "ones", 
        "__lr_mult__": "1.0", 
        "__shape__": "(128,)", 
        "__storage_type__": "0", 
        "__wd_mult__": "1.0"
      }, 
      "inputs": []
    }, 
    {
      "op": "BatchNorm", 
      "name": "block5_2_batchnorm2_fwd", 
      "attrs": {
        "axis": "1", 
        "eps": "1e-05", 
        "fix_gamma": "False", 
        "momentum": "0.9", 
        "use_global_stats": "False"
      }, 
      "inputs": [[704, 0, 0], [705, 0, 0], [706, 0, 0], [707, 0, 7], [708, 0, 7]]
    }, 
    {
      "op": "Dropout", 
      "name": "block5_2_dropout2_fwd", 
      "attrs": {
        "axes": "()", 
        "p": "0.2"
      }, 
      "inputs": [[709, 0, 0]]
    }, 
    {
      "op": "null", 
      "name": "block5_2_Mconv4_stage5_L2weight", 
      "attrs": {
        "__dtype__": "0", 
        "__lr_mult__": "1.0", 
        "__shape__": "(128, 128, 7, 7)", 
        "__storage_type__": "0", 
        "__wd_mult__": "1.0"
      }, 
      "inputs": []
    }, 
    {
      "op": "null", 
      "name": "block5_2_Mconv4_stage5_L2bias", 
      "attrs": {
        "__dtype__": "0", 
        "__init__": "zeros", 
        "__lr_mult__": "1.0", 
        "__shape__": "(128,)", 
        "__storage_type__": "0", 
        "__wd_mult__": "1.0"
      }, 
      "inputs": []
    }, 
    {
      "op": "Convolution", 
      "name": "block5_2_Mconv4_stage5_L2fwd", 
      "attrs": {
        "dilate": "(1, 1)", 
        "kernel": "(7, 7)", 
        "layout": "NCHW", 
        "no_bias": "False", 
        "num_filter": "128", 
        "num_group": "1", 
        "pad": "(3, 3)", 
        "stride": "(1, 1)"
      }, 
      "inputs": [[710, 0, 0], [711, 0, 0], [712, 0, 0]]
    }, 
    {
      "op": "Activation", 
      "name": "block5_2_Mconv4_stage5_L2relu_fwd", 
      "attrs": {"act_type": "relu"}, 
      "inputs": [[713, 0, 0]]
    }, 
    {
      "op": "null", 
      "name": "block5_2_batchnorm3_gamma", 
      "attrs": {
        "__dtype__": "0", 
        "__init__": "ones", 
        "__lr_mult__": "1.0", 
        "__shape__": "(128,)", 
        "__storage_type__": "0", 
        "__wd_mult__": "1.0"
      }, 
      "inputs": []
    }, 
    {
      "op": "null", 
      "name": "block5_2_batchnorm3_beta", 
      "attrs": {
        "__dtype__": "0", 
        "__init__": "zeros", 
        "__lr_mult__": "1.0", 
        "__shape__": "(128,)", 
        "__storage_type__": "0", 
        "__wd_mult__": "1.0"
      }, 
      "inputs": []
    }, 
    {
      "op": "null", 
      "name": "block5_2_batchnorm3_running_mean", 
      "attrs": {
        "__dtype__": "0", 
        "__init__": "zeros", 
        "__lr_mult__": "1.0", 
        "__shape__": "(128,)", 
        "__storage_type__": "0", 
        "__wd_mult__": "1.0"
      }, 
      "inputs": []
    }, 
    {
      "op": "null", 
      "name": "block5_2_batchnorm3_running_var", 
      "attrs": {
        "__dtype__": "0", 
        "__init__": "ones", 
        "__lr_mult__": "1.0", 
        "__shape__": "(128,)", 
        "__storage_type__": "0", 
        "__wd_mult__": "1.0"
      }, 
      "inputs": []
    }, 
    {
      "op": "BatchNorm", 
      "name": "block5_2_batchnorm3_fwd", 
      "attrs": {
        "axis": "1", 
        "eps": "1e-05", 
        "fix_gamma": "False", 
        "momentum": "0.9", 
        "use_global_stats": "False"
      }, 
      "inputs": [[714, 0, 0], [715, 0, 0], [716, 0, 0], [717, 0, 7], [718, 0, 7]]
    }, 
    {
      "op": "Dropout", 
      "name": "block5_2_dropout3_fwd", 
      "attrs": {
        "axes": "()", 
        "p": "0.2"
      }, 
      "inputs": [[719, 0, 0]]
    }, 
    {
      "op": "null", 
      "name": "block5_2_Mconv5_stage5_L2weight", 
      "attrs": {
        "__dtype__": "0", 
        "__lr_mult__": "1.0", 
        "__shape__": "(128, 128, 7, 7)", 
        "__storage_type__": "0", 
        "__wd_mult__": "1.0"
      }, 
      "inputs": []
    }, 
    {
      "op": "null", 
      "name": "block5_2_Mconv5_stage5_L2bias", 
      "attrs": {
        "__dtype__": "0", 
        "__init__": "zeros", 
        "__lr_mult__": "1.0", 
        "__shape__": "(128,)", 
        "__storage_type__": "0", 
        "__wd_mult__": "1.0"
      }, 
      "inputs": []
    }, 
    {
      "op": "Convolution", 
      "name": "block5_2_Mconv5_stage5_L2fwd", 
      "attrs": {
        "dilate": "(1, 1)", 
        "kernel": "(7, 7)", 
        "layout": "NCHW", 
        "no_bias": "False", 
        "num_filter": "128", 
        "num_group": "1", 
        "pad": "(3, 3)", 
        "stride": "(1, 1)"
      }, 
      "inputs": [[720, 0, 0], [721, 0, 0], [722, 0, 0]]
    }, 
    {
      "op": "Activation", 
      "name": "block5_2_Mconv5_stage5_L2relu_fwd", 
      "attrs": {"act_type": "relu"}, 
      "inputs": [[723, 0, 0]]
    }, 
    {
      "op": "null", 
      "name": "block5_2_batchnorm4_gamma", 
      "attrs": {
        "__dtype__": "0", 
        "__init__": "ones", 
        "__lr_mult__": "1.0", 
        "__shape__": "(128,)", 
        "__storage_type__": "0", 
        "__wd_mult__": "1.0"
      }, 
      "inputs": []
    }, 
    {
      "op": "null", 
      "name": "block5_2_batchnorm4_beta", 
      "attrs": {
        "__dtype__": "0", 
        "__init__": "zeros", 
        "__lr_mult__": "1.0", 
        "__shape__": "(128,)", 
        "__storage_type__": "0", 
        "__wd_mult__": "1.0"
      }, 
      "inputs": []
    }, 
    {
      "op": "null", 
      "name": "block5_2_batchnorm4_running_mean", 
      "attrs": {
        "__dtype__": "0", 
        "__init__": "zeros", 
        "__lr_mult__": "1.0", 
        "__shape__": "(128,)", 
        "__storage_type__": "0", 
        "__wd_mult__": "1.0"
      }, 
      "inputs": []
    }, 
    {
      "op": "null", 
      "name": "block5_2_batchnorm4_running_var", 
      "attrs": {
        "__dtype__": "0", 
        "__init__": "ones", 
        "__lr_mult__": "1.0", 
        "__shape__": "(128,)", 
        "__storage_type__": "0", 
        "__wd_mult__": "1.0"
      }, 
      "inputs": []
    }, 
    {
      "op": "BatchNorm", 
      "name": "block5_2_batchnorm4_fwd", 
      "attrs": {
        "axis": "1", 
        "eps": "1e-05", 
        "fix_gamma": "False", 
        "momentum": "0.9", 
        "use_global_stats": "False"
      }, 
      "inputs": [[724, 0, 0], [725, 0, 0], [726, 0, 0], [727, 0, 7], [728, 0, 7]]
    }, 
    {
      "op": "Dropout", 
      "name": "block5_2_dropout4_fwd", 
      "attrs": {
        "axes": "()", 
        "p": "0.2"
      }, 
      "inputs": [[729, 0, 0]]
    }, 
    {
      "op": "null", 
      "name": "block5_2_Mconv6_stage5_L2weight", 
      "attrs": {
        "__dtype__": "0", 
        "__lr_mult__": "1.0", 
        "__shape__": "(128, 128, 1, 1)", 
        "__storage_type__": "0", 
        "__wd_mult__": "1.0"
      }, 
      "inputs": []
    }, 
    {
      "op": "null", 
      "name": "block5_2_Mconv6_stage5_L2bias", 
      "attrs": {
        "__dtype__": "0", 
        "__init__": "zeros", 
        "__lr_mult__": "1.0", 
        "__shape__": "(128,)", 
        "__storage_type__": "0", 
        "__wd_mult__": "1.0"
      }, 
      "inputs": []
    }, 
    {
      "op": "Convolution", 
      "name": "block5_2_Mconv6_stage5_L2fwd", 
      "attrs": {
        "dilate": "(1, 1)", 
        "kernel": "(1, 1)", 
        "layout": "NCHW", 
        "no_bias": "False", 
        "num_filter": "128", 
        "num_group": "1", 
        "pad": "(0, 0)", 
        "stride": "(1, 1)"
      }, 
      "inputs": [[730, 0, 0], [731, 0, 0], [732, 0, 0]]
    }, 
    {
      "op": "Activation", 
      "name": "block5_2_Mconv6_stage5_L2relu_fwd", 
      "attrs": {"act_type": "relu"}, 
      "inputs": [[733, 0, 0]]
    }, 
    {
      "op": "null", 
      "name": "block5_2_batchnorm5_gamma", 
      "attrs": {
        "__dtype__": "0", 
        "__init__": "ones", 
        "__lr_mult__": "1.0", 
        "__shape__": "(128,)", 
        "__storage_type__": "0", 
        "__wd_mult__": "1.0"
      }, 
      "inputs": []
    }, 
    {
      "op": "null", 
      "name": "block5_2_batchnorm5_beta", 
      "attrs": {
        "__dtype__": "0", 
        "__init__": "zeros", 
        "__lr_mult__": "1.0", 
        "__shape__": "(128,)", 
        "__storage_type__": "0", 
        "__wd_mult__": "1.0"
      }, 
      "inputs": []
    }, 
    {
      "op": "null", 
      "name": "block5_2_batchnorm5_running_mean", 
      "attrs": {
        "__dtype__": "0", 
        "__init__": "zeros", 
        "__lr_mult__": "1.0", 
        "__shape__": "(128,)", 
        "__storage_type__": "0", 
        "__wd_mult__": "1.0"
      }, 
      "inputs": []
    }, 
    {
      "op": "null", 
      "name": "block5_2_batchnorm5_running_var", 
      "attrs": {
        "__dtype__": "0", 
        "__init__": "ones", 
        "__lr_mult__": "1.0", 
        "__shape__": "(128,)", 
        "__storage_type__": "0", 
        "__wd_mult__": "1.0"
      }, 
      "inputs": []
    }, 
    {
      "op": "BatchNorm", 
      "name": "block5_2_batchnorm5_fwd", 
      "attrs": {
        "axis": "1", 
        "eps": "1e-05", 
        "fix_gamma": "False", 
        "momentum": "0.9", 
        "use_global_stats": "False"
      }, 
      "inputs": [[734, 0, 0], [735, 0, 0], [736, 0, 0], [737, 0, 7], [738, 0, 7]]
    }, 
    {
      "op": "Dropout", 
      "name": "block5_2_dropout5_fwd", 
      "attrs": {
        "axes": "()", 
        "p": "0.2"
      }, 
      "inputs": [[739, 0, 0]]
    }, 
    {
      "op": "null", 
      "name": "block5_2_Mconv7_stage5_L2weight", 
      "attrs": {
        "__dtype__": "0", 
        "__lr_mult__": "1.0", 
        "__shape__": "(19, 128, 1, 1)", 
        "__storage_type__": "0", 
        "__wd_mult__": "1.0"
      }, 
      "inputs": []
    }, 
    {
      "op": "null", 
      "name": "block5_2_Mconv7_stage5_L2bias", 
      "attrs": {
        "__dtype__": "0", 
        "__init__": "zeros", 
        "__lr_mult__": "1.0", 
        "__shape__": "(19,)", 
        "__storage_type__": "0", 
        "__wd_mult__": "1.0"
      }, 
      "inputs": []
    }, 
    {
      "op": "Convolution", 
      "name": "block5_2_Mconv7_stage5_L2fwd", 
      "attrs": {
        "dilate": "(1, 1)", 
        "kernel": "(1, 1)", 
        "layout": "NCHW", 
        "no_bias": "False", 
        "num_filter": "19", 
        "num_group": "1", 
        "pad": "(0, 0)", 
        "stride": "(1, 1)"
      }, 
      "inputs": [[740, 0, 0], [741, 0, 0], [742, 0, 0]]
    }, 
    {
      "op": "Concat", 
      "name": "rtpose0_concat4", 
      "attrs": {
        "dim": "1", 
        "num_args": "3"
      }, 
      "inputs": [[680, 0, 0], [743, 0, 0], [149, 0, 0]]
    }, 
    {
      "op": "null", 
      "name": "block6_2_Mconv1_stage6_L2weight", 
      "attrs": {
        "__dtype__": "0", 
        "__lr_mult__": "1.0", 
        "__shape__": "(128, 73, 7, 7)", 
        "__storage_type__": "0", 
        "__wd_mult__": "1.0"
      }, 
      "inputs": []
    }, 
    {
      "op": "null", 
      "name": "block6_2_Mconv1_stage6_L2bias", 
      "attrs": {
        "__dtype__": "0", 
        "__init__": "zeros", 
        "__lr_mult__": "1.0", 
        "__shape__": "(128,)", 
        "__storage_type__": "0", 
        "__wd_mult__": "1.0"
      }, 
      "inputs": []
    }, 
    {
      "op": "Convolution", 
      "name": "block6_2_Mconv1_stage6_L2fwd", 
      "attrs": {
        "dilate": "(1, 1)", 
        "kernel": "(7, 7)", 
        "layout": "NCHW", 
        "no_bias": "False", 
        "num_filter": "128", 
        "num_group": "1", 
        "pad": "(3, 3)", 
        "stride": "(1, 1)"
      }, 
      "inputs": [[744, 0, 0], [745, 0, 0], [746, 0, 0]]
    }, 
    {
      "op": "Activation", 
      "name": "block6_2_Mconv1_stage6_L2relu_fwd", 
      "attrs": {"act_type": "relu"}, 
      "inputs": [[747, 0, 0]]
    }, 
    {
      "op": "null", 
      "name": "block6_2_batchnorm0_gamma", 
      "attrs": {
        "__dtype__": "0", 
        "__init__": "ones", 
        "__lr_mult__": "1.0", 
        "__shape__": "(128,)", 
        "__storage_type__": "0", 
        "__wd_mult__": "1.0"
      }, 
      "inputs": []
    }, 
    {
      "op": "null", 
      "name": "block6_2_batchnorm0_beta", 
      "attrs": {
        "__dtype__": "0", 
        "__init__": "zeros", 
        "__lr_mult__": "1.0", 
        "__shape__": "(128,)", 
        "__storage_type__": "0", 
        "__wd_mult__": "1.0"
      }, 
      "inputs": []
    }, 
    {
      "op": "null", 
      "name": "block6_2_batchnorm0_running_mean", 
      "attrs": {
        "__dtype__": "0", 
        "__init__": "zeros", 
        "__lr_mult__": "1.0", 
        "__shape__": "(128,)", 
        "__storage_type__": "0", 
        "__wd_mult__": "1.0"
      }, 
      "inputs": []
    }, 
    {
      "op": "null", 
      "name": "block6_2_batchnorm0_running_var", 
      "attrs": {
        "__dtype__": "0", 
        "__init__": "ones", 
        "__lr_mult__": "1.0", 
        "__shape__": "(128,)", 
        "__storage_type__": "0", 
        "__wd_mult__": "1.0"
      }, 
      "inputs": []
    }, 
    {
      "op": "BatchNorm", 
      "name": "block6_2_batchnorm0_fwd", 
      "attrs": {
        "axis": "1", 
        "eps": "1e-05", 
        "fix_gamma": "False", 
        "momentum": "0.9", 
        "use_global_stats": "False"
      }, 
      "inputs": [[748, 0, 0], [749, 0, 0], [750, 0, 0], [751, 0, 7], [752, 0, 7]]
    }, 
    {
      "op": "Dropout", 
      "name": "block6_2_dropout0_fwd", 
      "attrs": {
        "axes": "()", 
        "p": "0.2"
      }, 
      "inputs": [[753, 0, 0]]
    }, 
    {
      "op": "null", 
      "name": "block6_2_Mconv2_stage6_L2weight", 
      "attrs": {
        "__dtype__": "0", 
        "__lr_mult__": "1.0", 
        "__shape__": "(128, 128, 7, 7)", 
        "__storage_type__": "0", 
        "__wd_mult__": "1.0"
      }, 
      "inputs": []
    }, 
    {
      "op": "null", 
      "name": "block6_2_Mconv2_stage6_L2bias", 
      "attrs": {
        "__dtype__": "0", 
        "__init__": "zeros", 
        "__lr_mult__": "1.0", 
        "__shape__": "(128,)", 
        "__storage_type__": "0", 
        "__wd_mult__": "1.0"
      }, 
      "inputs": []
    }, 
    {
      "op": "Convolution", 
      "name": "block6_2_Mconv2_stage6_L2fwd", 
      "attrs": {
        "dilate": "(1, 1)", 
        "kernel": "(7, 7)", 
        "layout": "NCHW", 
        "no_bias": "False", 
        "num_filter": "128", 
        "num_group": "1", 
        "pad": "(3, 3)", 
        "stride": "(1, 1)"
      }, 
      "inputs": [[754, 0, 0], [755, 0, 0], [756, 0, 0]]
    }, 
    {
      "op": "Activation", 
      "name": "block6_2_Mconv2_stage6_L2relu_fwd", 
      "attrs": {"act_type": "relu"}, 
      "inputs": [[757, 0, 0]]
    }, 
    {
      "op": "null", 
      "name": "block6_2_batchnorm1_gamma", 
      "attrs": {
        "__dtype__": "0", 
        "__init__": "ones", 
        "__lr_mult__": "1.0", 
        "__shape__": "(128,)", 
        "__storage_type__": "0", 
        "__wd_mult__": "1.0"
      }, 
      "inputs": []
    }, 
    {
      "op": "null", 
      "name": "block6_2_batchnorm1_beta", 
      "attrs": {
        "__dtype__": "0", 
        "__init__": "zeros", 
        "__lr_mult__": "1.0", 
        "__shape__": "(128,)", 
        "__storage_type__": "0", 
        "__wd_mult__": "1.0"
      }, 
      "inputs": []
    }, 
    {
      "op": "null", 
      "name": "block6_2_batchnorm1_running_mean", 
      "attrs": {
        "__dtype__": "0", 
        "__init__": "zeros", 
        "__lr_mult__": "1.0", 
        "__shape__": "(128,)", 
        "__storage_type__": "0", 
        "__wd_mult__": "1.0"
      }, 
      "inputs": []
    }, 
    {
      "op": "null", 
      "name": "block6_2_batchnorm1_running_var", 
      "attrs": {
        "__dtype__": "0", 
        "__init__": "ones", 
        "__lr_mult__": "1.0", 
        "__shape__": "(128,)", 
        "__storage_type__": "0", 
        "__wd_mult__": "1.0"
      }, 
      "inputs": []
    }, 
    {
      "op": "BatchNorm", 
      "name": "block6_2_batchnorm1_fwd", 
      "attrs": {
        "axis": "1", 
        "eps": "1e-05", 
        "fix_gamma": "False", 
        "momentum": "0.9", 
        "use_global_stats": "False"
      }, 
      "inputs": [[758, 0, 0], [759, 0, 0], [760, 0, 0], [761, 0, 7], [762, 0, 7]]
    }, 
    {
      "op": "Dropout", 
      "name": "block6_2_dropout1_fwd", 
      "attrs": {
        "axes": "()", 
        "p": "0.2"
      }, 
      "inputs": [[763, 0, 0]]
    }, 
    {
      "op": "null", 
      "name": "block6_2_Mconv3_stage6_L2weight", 
      "attrs": {
        "__dtype__": "0", 
        "__lr_mult__": "1.0", 
        "__shape__": "(128, 128, 7, 7)", 
        "__storage_type__": "0", 
        "__wd_mult__": "1.0"
      }, 
      "inputs": []
    }, 
    {
      "op": "null", 
      "name": "block6_2_Mconv3_stage6_L2bias", 
      "attrs": {
        "__dtype__": "0", 
        "__init__": "zeros", 
        "__lr_mult__": "1.0", 
        "__shape__": "(128,)", 
        "__storage_type__": "0", 
        "__wd_mult__": "1.0"
      }, 
      "inputs": []
    }, 
    {
      "op": "Convolution", 
      "name": "block6_2_Mconv3_stage6_L2fwd", 
      "attrs": {
        "dilate": "(1, 1)", 
        "kernel": "(7, 7)", 
        "layout": "NCHW", 
        "no_bias": "False", 
        "num_filter": "128", 
        "num_group": "1", 
        "pad": "(3, 3)", 
        "stride": "(1, 1)"
      }, 
      "inputs": [[764, 0, 0], [765, 0, 0], [766, 0, 0]]
    }, 
    {
      "op": "Activation", 
      "name": "block6_2_Mconv3_stage6_L2relu_fwd", 
      "attrs": {"act_type": "relu"}, 
      "inputs": [[767, 0, 0]]
    }, 
    {
      "op": "null", 
      "name": "block6_2_batchnorm2_gamma", 
      "attrs": {
        "__dtype__": "0", 
        "__init__": "ones", 
        "__lr_mult__": "1.0", 
        "__shape__": "(128,)", 
        "__storage_type__": "0", 
        "__wd_mult__": "1.0"
      }, 
      "inputs": []
    }, 
    {
      "op": "null", 
      "name": "block6_2_batchnorm2_beta", 
      "attrs": {
        "__dtype__": "0", 
        "__init__": "zeros", 
        "__lr_mult__": "1.0", 
        "__shape__": "(128,)", 
        "__storage_type__": "0", 
        "__wd_mult__": "1.0"
      }, 
      "inputs": []
    }, 
    {
      "op": "null", 
      "name": "block6_2_batchnorm2_running_mean", 
      "attrs": {
        "__dtype__": "0", 
        "__init__": "zeros", 
        "__lr_mult__": "1.0", 
        "__shape__": "(128,)", 
        "__storage_type__": "0", 
        "__wd_mult__": "1.0"
      }, 
      "inputs": []
    }, 
    {
      "op": "null", 
      "name": "block6_2_batchnorm2_running_var", 
      "attrs": {
        "__dtype__": "0", 
        "__init__": "ones", 
        "__lr_mult__": "1.0", 
        "__shape__": "(128,)", 
        "__storage_type__": "0", 
        "__wd_mult__": "1.0"
      }, 
      "inputs": []
    }, 
    {
      "op": "BatchNorm", 
      "name": "block6_2_batchnorm2_fwd", 
      "attrs": {
        "axis": "1", 
        "eps": "1e-05", 
        "fix_gamma": "False", 
        "momentum": "0.9", 
        "use_global_stats": "False"
      }, 
      "inputs": [[768, 0, 0], [769, 0, 0], [770, 0, 0], [771, 0, 7], [772, 0, 7]]
    }, 
    {
      "op": "Dropout", 
      "name": "block6_2_dropout2_fwd", 
      "attrs": {
        "axes": "()", 
        "p": "0.2"
      }, 
      "inputs": [[773, 0, 0]]
    }, 
    {
      "op": "null", 
      "name": "block6_2_Mconv4_stage6_L2weight", 
      "attrs": {
        "__dtype__": "0", 
        "__lr_mult__": "1.0", 
        "__shape__": "(128, 128, 7, 7)", 
        "__storage_type__": "0", 
        "__wd_mult__": "1.0"
      }, 
      "inputs": []
    }, 
    {
      "op": "null", 
      "name": "block6_2_Mconv4_stage6_L2bias", 
      "attrs": {
        "__dtype__": "0", 
        "__init__": "zeros", 
        "__lr_mult__": "1.0", 
        "__shape__": "(128,)", 
        "__storage_type__": "0", 
        "__wd_mult__": "1.0"
      }, 
      "inputs": []
    }, 
    {
      "op": "Convolution", 
      "name": "block6_2_Mconv4_stage6_L2fwd", 
      "attrs": {
        "dilate": "(1, 1)", 
        "kernel": "(7, 7)", 
        "layout": "NCHW", 
        "no_bias": "False", 
        "num_filter": "128", 
        "num_group": "1", 
        "pad": "(3, 3)", 
        "stride": "(1, 1)"
      }, 
      "inputs": [[774, 0, 0], [775, 0, 0], [776, 0, 0]]
    }, 
    {
      "op": "Activation", 
      "name": "block6_2_Mconv4_stage6_L2relu_fwd", 
      "attrs": {"act_type": "relu"}, 
      "inputs": [[777, 0, 0]]
    }, 
    {
      "op": "null", 
      "name": "block6_2_batchnorm3_gamma", 
      "attrs": {
        "__dtype__": "0", 
        "__init__": "ones", 
        "__lr_mult__": "1.0", 
        "__shape__": "(128,)", 
        "__storage_type__": "0", 
        "__wd_mult__": "1.0"
      }, 
      "inputs": []
    }, 
    {
      "op": "null", 
      "name": "block6_2_batchnorm3_beta", 
      "attrs": {
        "__dtype__": "0", 
        "__init__": "zeros", 
        "__lr_mult__": "1.0", 
        "__shape__": "(128,)", 
        "__storage_type__": "0", 
        "__wd_mult__": "1.0"
      }, 
      "inputs": []
    }, 
    {
      "op": "null", 
      "name": "block6_2_batchnorm3_running_mean", 
      "attrs": {
        "__dtype__": "0", 
        "__init__": "zeros", 
        "__lr_mult__": "1.0", 
        "__shape__": "(128,)", 
        "__storage_type__": "0", 
        "__wd_mult__": "1.0"
      }, 
      "inputs": []
    }, 
    {
      "op": "null", 
      "name": "block6_2_batchnorm3_running_var", 
      "attrs": {
        "__dtype__": "0", 
        "__init__": "ones", 
        "__lr_mult__": "1.0", 
        "__shape__": "(128,)", 
        "__storage_type__": "0", 
        "__wd_mult__": "1.0"
      }, 
      "inputs": []
    }, 
    {
      "op": "BatchNorm", 
      "name": "block6_2_batchnorm3_fwd", 
      "attrs": {
        "axis": "1", 
        "eps": "1e-05", 
        "fix_gamma": "False", 
        "momentum": "0.9", 
        "use_global_stats": "False"
      }, 
      "inputs": [[778, 0, 0], [779, 0, 0], [780, 0, 0], [781, 0, 7], [782, 0, 7]]
    }, 
    {
      "op": "Dropout", 
      "name": "block6_2_dropout3_fwd", 
      "attrs": {
        "axes": "()", 
        "p": "0.2"
      }, 
      "inputs": [[783, 0, 0]]
    }, 
    {
      "op": "null", 
      "name": "block6_2_Mconv5_stage6_L2weight", 
      "attrs": {
        "__dtype__": "0", 
        "__lr_mult__": "1.0", 
        "__shape__": "(128, 128, 7, 7)", 
        "__storage_type__": "0", 
        "__wd_mult__": "1.0"
      }, 
      "inputs": []
    }, 
    {
      "op": "null", 
      "name": "block6_2_Mconv5_stage6_L2bias", 
      "attrs": {
        "__dtype__": "0", 
        "__init__": "zeros", 
        "__lr_mult__": "1.0", 
        "__shape__": "(128,)", 
        "__storage_type__": "0", 
        "__wd_mult__": "1.0"
      }, 
      "inputs": []
    }, 
    {
      "op": "Convolution", 
      "name": "block6_2_Mconv5_stage6_L2fwd", 
      "attrs": {
        "dilate": "(1, 1)", 
        "kernel": "(7, 7)", 
        "layout": "NCHW", 
        "no_bias": "False", 
        "num_filter": "128", 
        "num_group": "1", 
        "pad": "(3, 3)", 
        "stride": "(1, 1)"
      }, 
      "inputs": [[784, 0, 0], [785, 0, 0], [786, 0, 0]]
    }, 
    {
      "op": "Activation", 
      "name": "block6_2_Mconv5_stage6_L2relu_fwd", 
      "attrs": {"act_type": "relu"}, 
      "inputs": [[787, 0, 0]]
    }, 
    {
      "op": "null", 
      "name": "block6_2_batchnorm4_gamma", 
      "attrs": {
        "__dtype__": "0", 
        "__init__": "ones", 
        "__lr_mult__": "1.0", 
        "__shape__": "(128,)", 
        "__storage_type__": "0", 
        "__wd_mult__": "1.0"
      }, 
      "inputs": []
    }, 
    {
      "op": "null", 
      "name": "block6_2_batchnorm4_beta", 
      "attrs": {
        "__dtype__": "0", 
        "__init__": "zeros", 
        "__lr_mult__": "1.0", 
        "__shape__": "(128,)", 
        "__storage_type__": "0", 
        "__wd_mult__": "1.0"
      }, 
      "inputs": []
    }, 
    {
      "op": "null", 
      "name": "block6_2_batchnorm4_running_mean", 
      "attrs": {
        "__dtype__": "0", 
        "__init__": "zeros", 
        "__lr_mult__": "1.0", 
        "__shape__": "(128,)", 
        "__storage_type__": "0", 
        "__wd_mult__": "1.0"
      }, 
      "inputs": []
    }, 
    {
      "op": "null", 
      "name": "block6_2_batchnorm4_running_var", 
      "attrs": {
        "__dtype__": "0", 
        "__init__": "ones", 
        "__lr_mult__": "1.0", 
        "__shape__": "(128,)", 
        "__storage_type__": "0", 
        "__wd_mult__": "1.0"
      }, 
      "inputs": []
    }, 
    {
      "op": "BatchNorm", 
      "name": "block6_2_batchnorm4_fwd", 
      "attrs": {
        "axis": "1", 
        "eps": "1e-05", 
        "fix_gamma": "False", 
        "momentum": "0.9", 
        "use_global_stats": "False"
      }, 
      "inputs": [[788, 0, 0], [789, 0, 0], [790, 0, 0], [791, 0, 7], [792, 0, 7]]
    }, 
    {
      "op": "Dropout", 
      "name": "block6_2_dropout4_fwd", 
      "attrs": {
        "axes": "()", 
        "p": "0.2"
      }, 
      "inputs": [[793, 0, 0]]
    }, 
    {
      "op": "null", 
      "name": "block6_2_Mconv6_stage6_L2weight", 
      "attrs": {
        "__dtype__": "0", 
        "__lr_mult__": "1.0", 
        "__shape__": "(128, 128, 1, 1)", 
        "__storage_type__": "0", 
        "__wd_mult__": "1.0"
      }, 
      "inputs": []
    }, 
    {
      "op": "null", 
      "name": "block6_2_Mconv6_stage6_L2bias", 
      "attrs": {
        "__dtype__": "0", 
        "__init__": "zeros", 
        "__lr_mult__": "1.0", 
        "__shape__": "(128,)", 
        "__storage_type__": "0", 
        "__wd_mult__": "1.0"
      }, 
      "inputs": []
    }, 
    {
      "op": "Convolution", 
      "name": "block6_2_Mconv6_stage6_L2fwd", 
      "attrs": {
        "dilate": "(1, 1)", 
        "kernel": "(1, 1)", 
        "layout": "NCHW", 
        "no_bias": "False", 
        "num_filter": "128", 
        "num_group": "1", 
        "pad": "(0, 0)", 
        "stride": "(1, 1)"
      }, 
      "inputs": [[794, 0, 0], [795, 0, 0], [796, 0, 0]]
    }, 
    {
      "op": "Activation", 
      "name": "block6_2_Mconv6_stage6_L2relu_fwd", 
      "attrs": {"act_type": "relu"}, 
      "inputs": [[797, 0, 0]]
    }, 
    {
      "op": "null", 
      "name": "block6_2_batchnorm5_gamma", 
      "attrs": {
        "__dtype__": "0", 
        "__init__": "ones", 
        "__lr_mult__": "1.0", 
        "__shape__": "(128,)", 
        "__storage_type__": "0", 
        "__wd_mult__": "1.0"
      }, 
      "inputs": []
    }, 
    {
      "op": "null", 
      "name": "block6_2_batchnorm5_beta", 
      "attrs": {
        "__dtype__": "0", 
        "__init__": "zeros", 
        "__lr_mult__": "1.0", 
        "__shape__": "(128,)", 
        "__storage_type__": "0", 
        "__wd_mult__": "1.0"
      }, 
      "inputs": []
    }, 
    {
      "op": "null", 
      "name": "block6_2_batchnorm5_running_mean", 
      "attrs": {
        "__dtype__": "0", 
        "__init__": "zeros", 
        "__lr_mult__": "1.0", 
        "__shape__": "(128,)", 
        "__storage_type__": "0", 
        "__wd_mult__": "1.0"
      }, 
      "inputs": []
    }, 
    {
      "op": "null", 
      "name": "block6_2_batchnorm5_running_var", 
      "attrs": {
        "__dtype__": "0", 
        "__init__": "ones", 
        "__lr_mult__": "1.0", 
        "__shape__": "(128,)", 
        "__storage_type__": "0", 
        "__wd_mult__": "1.0"
      }, 
      "inputs": []
    }, 
    {
      "op": "BatchNorm", 
      "name": "block6_2_batchnorm5_fwd", 
      "attrs": {
        "axis": "1", 
        "eps": "1e-05", 
        "fix_gamma": "False", 
        "momentum": "0.9", 
        "use_global_stats": "False"
      }, 
      "inputs": [[798, 0, 0], [799, 0, 0], [800, 0, 0], [801, 0, 7], [802, 0, 7]]
    }, 
    {
      "op": "Dropout", 
      "name": "block6_2_dropout5_fwd", 
      "attrs": {
        "axes": "()", 
        "p": "0.2"
      }, 
      "inputs": [[803, 0, 0]]
    }, 
    {
      "op": "null", 
      "name": "block6_2_Mconv7_stage6_L2weight", 
      "attrs": {
        "__dtype__": "0", 
        "__lr_mult__": "1.0", 
        "__shape__": "(19, 128, 1, 1)", 
        "__storage_type__": "0", 
        "__wd_mult__": "1.0"
      }, 
      "inputs": []
    }, 
    {
      "op": "null", 
      "name": "block6_2_Mconv7_stage6_L2bias", 
      "attrs": {
        "__dtype__": "0", 
        "__init__": "zeros", 
        "__lr_mult__": "1.0", 
        "__shape__": "(19,)", 
        "__storage_type__": "0", 
        "__wd_mult__": "1.0"
      }, 
      "inputs": []
    }, 
    {
      "op": "Convolution", 
      "name": "block6_2_Mconv7_stage6_L2fwd", 
      "attrs": {
        "dilate": "(1, 1)", 
        "kernel": "(1, 1)", 
        "layout": "NCHW", 
        "no_bias": "False", 
        "num_filter": "19", 
        "num_group": "1", 
        "pad": "(0, 0)", 
        "stride": "(1, 1)"
      }, 
      "inputs": [[804, 0, 0], [805, 0, 0], [806, 0, 0]]
    }
  ], 
  "arg_nodes": [
    0, 
    1, 
    3, 
    4, 
    5, 
    6, 
    9, 
    11, 
    12, 
    13, 
    14, 
    17, 
    19, 
    20, 
    21, 
    22, 
    25, 
    27, 
    28, 
    29, 
    30, 
    32, 
    34, 
    35, 
    36, 
    37, 
    40, 
    42, 
    43, 
    44, 
    45, 
    48, 
    50, 
    51, 
    52, 
    53, 
    55, 
    57, 
    58, 
    59, 
    60, 
    63, 
    65, 
    66, 
    67, 
    68, 
    71, 
    73, 
    74, 
    75, 
    76, 
    79, 
    81, 
    82, 
    83, 
    84, 
    87, 
    89, 
    90, 
    91, 
    92, 
    95, 
    97, 
    98, 
    99, 
    100, 
    102, 
    104, 
    105, 
    106, 
    107, 
    110, 
    112, 
    113, 
    114, 
    115, 
    118, 
    120, 
    121, 
    122, 
    123, 
    126, 
    128, 
    129, 
    130, 
    131, 
    134, 
    136, 
    137, 
    138, 
    139, 
    142, 
    144, 
    145, 
    146, 
    147, 
    150, 
    151, 
    154, 
    155, 
    156, 
    157, 
    160, 
    161, 
    164, 
    165, 
    166, 
    167, 
    170, 
    171, 
    174, 
    175, 
    176, 
    177, 
    180, 
    181, 
    184, 
    185, 
    186, 
    187, 
    190, 
    191, 
    193, 
    194, 
    197, 
    198, 
    199, 
    200, 
    203, 
    204, 
    207, 
    208, 
    209, 
    210, 
    213, 
    214, 
    217, 
    218, 
    219, 
    220, 
    223, 
    224, 
    227, 
    228, 
    229, 
    230, 
    233, 
    234, 
    237, 
    238, 
    241, 
    242, 
    243, 
    244, 
    247, 
    248, 
    251, 
    252, 
    253, 
    254, 
    257, 
    258, 
    261, 
    262, 
    263, 
    264, 
    267, 
    268, 
    271, 
    272, 
    273, 
    274, 
    277, 
    278, 
    281, 
    282, 
    283, 
    284, 
    287, 
    288, 
    291, 
    292, 
    293, 
    294, 
    297, 
    298, 
    300, 
    301, 
    304, 
    305, 
    306, 
    307, 
    310, 
    311, 
    314, 
    315, 
    316, 
    317, 
    320, 
    321, 
    324, 
    325, 
    326, 
    327, 
    330, 
    331, 
    334, 
    335, 
    336, 
    337, 
    340, 
    341, 
    344, 
    345, 
    346, 
    347, 
    350, 
    351, 
    354, 
    355, 
    356, 
    357, 
    360, 
    361, 
    364, 
    365, 
    368, 
    369, 
    370, 
    371, 
    374, 
    375, 
    378, 
    379, 
    380, 
    381, 
    384, 
    385, 
    388, 
    389, 
    390, 
    391, 
    394, 
    395, 
    398, 
    399, 
    400, 
    401, 
    404, 
    405, 
    408, 
    409, 
    410, 
    411, 
    414, 
    415, 
    418, 
    419, 
    420, 
    421, 
    424, 
    425, 
    427, 
    428, 
    431, 
    432, 
    433, 
    434, 
    437, 
    438, 
    441, 
    442, 
    443, 
    444, 
    447, 
    448, 
    451, 
    452, 
    453, 
    454, 
    457, 
    458, 
    461, 
    462, 
    463, 
    464, 
    467, 
    468, 
    471, 
    472, 
    473, 
    474, 
    477, 
    478, 
    481, 
    482, 
    483, 
    484, 
    487, 
    488, 
    491, 
    492, 
    495, 
    496, 
    497, 
    498, 
    501, 
    502, 
    505, 
    506, 
    507, 
    508, 
    511, 
    512, 
    515, 
    516, 
    517, 
    518, 
    521, 
    522, 
    525, 
    526, 
    527, 
    528, 
    531, 
    532, 
    535, 
    536, 
    537, 
    538, 
    541, 
    542, 
    545, 
    546, 
    547, 
    548, 
    551, 
    552, 
    554, 
    555, 
    558, 
    559, 
    560, 
    561, 
    564, 
    565, 
    568, 
    569, 
    570, 
    571, 
    574, 
    575, 
    578, 
    579, 
    580, 
    581, 
    584, 
    585, 
    588, 
    589, 
    590, 
    591, 
    594, 
    595, 
    598, 
    599, 
    600, 
    601, 
    604, 
    605, 
    608, 
    609, 
    610, 
    611, 
    614, 
    615, 
    618, 
    619, 
    622, 
    623, 
    624, 
    625, 
    628, 
    629, 
    632, 
    633, 
    634, 
    635, 
    638, 
    639, 
    642, 
    643, 
    644, 
    645, 
    648, 
    649, 
    652, 
    653, 
    654, 
    655, 
    658, 
    659, 
    662, 
    663, 
    664, 
    665, 
    668, 
    669, 
    672, 
    673, 
    674, 
    675, 
    678, 
    679, 
    681, 
    682, 
    685, 
    686, 
    687, 
    688, 
    691, 
    692, 
    695, 
    696, 
    697, 
    698, 
    701, 
    702, 
    705, 
    706, 
    707, 
    708, 
    711, 
    712, 
    715, 
    716, 
    717, 
    718, 
    721, 
    722, 
    725, 
    726, 
    727, 
    728, 
    731, 
    732, 
    735, 
    736, 
    737, 
    738, 
    741, 
    742, 
    745, 
    746, 
    749, 
    750, 
    751, 
    752, 
    755, 
    756, 
    759, 
    760, 
    761, 
    762, 
    765, 
    766, 
    769, 
    770, 
    771, 
    772, 
    775, 
    776, 
    779, 
    780, 
    781, 
    782, 
    785, 
    786, 
    789, 
    790, 
    791, 
    792, 
    795, 
    796, 
    799, 
    800, 
    801, 
    802, 
    805, 
    806
  ], 
  "node_row_ptr": [
    0, 
    1, 
    2, 
    3, 
    4, 
    5, 
    6, 
    7, 
    10, 
    11, 
    12, 
    13, 
    14, 
    15, 
    16, 
    17, 
    20, 
    21, 
    22, 
    23, 
    24, 
    25, 
    26, 
    27, 
    30, 
    31, 
    32, 
    33, 
    34, 
    35, 
    36, 
    37, 
    40, 
    41, 
    42, 
    43, 
    44, 
    45, 
    46, 
    49, 
    50, 
    51, 
    52, 
    53, 
    54, 
    55, 
    56, 
    59, 
    60, 
    61, 
    62, 
    63, 
    64, 
    65, 
    66, 
    69, 
    70, 
    71, 
    72, 
    73, 
    74, 
    75, 
    78, 
    79, 
    80, 
    81, 
    82, 
    83, 
    84, 
    85, 
    88, 
    89, 
    90, 
    91, 
    92, 
    93, 
    94, 
    95, 
    98, 
    99, 
    100, 
    101, 
    102, 
    103, 
    104, 
    105, 
    108, 
    109, 
    110, 
    111, 
    112, 
    113, 
    114, 
    115, 
    118, 
    119, 
    120, 
    121, 
    122, 
    123, 
    124, 
    125, 
    128, 
    129, 
    130, 
    131, 
    132, 
    133, 
    134, 
    137, 
    138, 
    139, 
    140, 
    141, 
    142, 
    143, 
    144, 
    147, 
    148, 
    149, 
    150, 
    151, 
    152, 
    153, 
    154, 
    157, 
    158, 
    159, 
    160, 
    161, 
    162, 
    163, 
    164, 
    167, 
    168, 
    169, 
    170, 
    171, 
    172, 
    173, 
    174, 
    177, 
    178, 
    179, 
    180, 
    181, 
    182, 
    183, 
    184, 
    187, 
    188, 
    189, 
    190, 
    191, 
    192, 
    193, 
    194, 
    195, 
    196, 
    199, 
    201, 
    202, 
    203, 
    204, 
    205, 
    206, 
    207, 
    208, 
    209, 
    212, 
    214, 
    215, 
    216, 
    217, 
    218, 
    219, 
    220, 
    221, 
    222, 
    225, 
    227, 
    228, 
    229, 
    230, 
    231, 
    232, 
    233, 
    234, 
    235, 
    238, 
    240, 
    241, 
    242, 
    243, 
    244, 
    245, 
    246, 
    247, 
    248, 
    249, 
    250, 
    251, 
    254, 
    256, 
    257, 
    258, 
    259, 
    260, 
    261, 
    262, 
    263, 
    264, 
    267, 
    269, 
    270, 
    271, 
    272, 
    273, 
    274, 
    275, 
    276, 
    277, 
    280, 
    282, 
    283, 
    284, 
    285, 
    286, 
    287, 
    288, 
    289, 
    290, 
    293, 
    295, 
    296, 
    297, 
    298, 
    299, 
    300, 
    301, 
    302, 
    303, 
    304, 
    305, 
    306, 
    307, 
    310, 
    312, 
    313, 
    314, 
    315, 
    316, 
    317, 
    318, 
    319, 
    320, 
    323, 
    325, 
    326, 
    327, 
    328, 
    329, 
    330, 
    331, 
    332, 
    333, 
    336, 
    338, 
    339, 
    340, 
    341, 
    342, 
    343, 
    344, 
    345, 
    346, 
    349, 
    351, 
    352, 
    353, 
    354, 
    355, 
    356, 
    357, 
    358, 
    359, 
    362, 
    364, 
    365, 
    366, 
    367, 
    368, 
    369, 
    370, 
    371, 
    372, 
    375, 
    377, 
    378, 
    379, 
    380, 
    381, 
    382, 
    383, 
    384, 
    385, 
    386, 
    387, 
    388, 
    391, 
    393, 
    394, 
    395, 
    396, 
    397, 
    398, 
    399, 
    400, 
    401, 
    404, 
    406, 
    407, 
    408, 
    409, 
    410, 
    411, 
    412, 
    413, 
    414, 
    417, 
    419, 
    420, 
    421, 
    422, 
    423, 
    424, 
    425, 
    426, 
    427, 
    430, 
    432, 
    433, 
    434, 
    435, 
    436, 
    437, 
    438, 
    439, 
    440, 
    443, 
    445, 
    446, 
    447, 
    448, 
    449, 
    450, 
    451, 
    452, 
    453, 
    456, 
    458, 
    459, 
    460, 
    461, 
    462, 
    463, 
    464, 
    465, 
    466, 
    467, 
    468, 
    469, 
    470, 
    473, 
    475, 
    476, 
    477, 
    478, 
    479, 
    480, 
    481, 
    482, 
    483, 
    486, 
    488, 
    489, 
    490, 
    491, 
    492, 
    493, 
    494, 
    495, 
    496, 
    499, 
    501, 
    502, 
    503, 
    504, 
    505, 
    506, 
    507, 
    508, 
    509, 
    512, 
    514, 
    515, 
    516, 
    517, 
    518, 
    519, 
    520, 
    521, 
    522, 
    525, 
    527, 
    528, 
    529, 
    530, 
    531, 
    532, 
    533, 
    534, 
    535, 
    538, 
    540, 
    541, 
    542, 
    543, 
    544, 
    545, 
    546, 
    547, 
    548, 
    549, 
    550, 
    551, 
    554, 
    556, 
    557, 
    558, 
    559, 
    560, 
    561, 
    562, 
    563, 
    564, 
    567, 
    569, 
    570, 
    571, 
    572, 
    573, 
    574, 
    575, 
    576, 
    577, 
    580, 
    582, 
    583, 
    584, 
    585, 
    586, 
    587, 
    588, 
    589, 
    590, 
    593, 
    595, 
    596, 
    597, 
    598, 
    599, 
    600, 
    601, 
    602, 
    603, 
    606, 
    608, 
    609, 
    610, 
    611, 
    612, 
    613, 
    614, 
    615, 
    616, 
    619, 
    621, 
    622, 
    623, 
    624, 
    625, 
    626, 
    627, 
    628, 
    629, 
    630, 
    631, 
    632, 
    633, 
    636, 
    638, 
    639, 
    640, 
    641, 
    642, 
    643, 
    644, 
    645, 
    646, 
    649, 
    651, 
    652, 
    653, 
    654, 
    655, 
    656, 
    657, 
    658, 
    659, 
    662, 
    664, 
    665, 
    666, 
    667, 
    668, 
    669, 
    670, 
    671, 
    672, 
    675, 
    677, 
    678, 
    679, 
    680, 
    681, 
    682, 
    683, 
    684, 
    685, 
    688, 
    690, 
    691, 
    692, 
    693, 
    694, 
    695, 
    696, 
    697, 
    698, 
    701, 
    703, 
    704, 
    705, 
    706, 
    707, 
    708, 
    709, 
    710, 
    711, 
    712, 
    713, 
    714, 
    717, 
    719, 
    720, 
    721, 
    722, 
    723, 
    724, 
    725, 
    726, 
    727, 
    730, 
    732, 
    733, 
    734, 
    735, 
    736, 
    737, 
    738, 
    739, 
    740, 
    743, 
    745, 
    746, 
    747, 
    748, 
    749, 
    750, 
    751, 
    752, 
    753, 
    756, 
    758, 
    759, 
    760, 
    761, 
    762, 
    763, 
    764, 
    765, 
    766, 
    769, 
    771, 
    772, 
    773, 
    774, 
    775, 
    776, 
    777, 
    778, 
    779, 
    782, 
    784, 
    785, 
    786, 
    787, 
    788, 
    789, 
    790, 
    791, 
    792, 
    793, 
    794, 
    795, 
    796, 
    799, 
    801, 
    802, 
    803, 
    804, 
    805, 
    806, 
    807, 
    808, 
    809, 
    812, 
    814, 
    815, 
    816, 
    817, 
    818, 
    819, 
    820, 
    821, 
    822, 
    825, 
    827, 
    828, 
    829, 
    830, 
    831, 
    832, 
    833, 
    834, 
    835, 
    838, 
    840, 
    841, 
    842, 
    843, 
    844, 
    845, 
    846, 
    847, 
    848, 
    851, 
    853, 
    854, 
    855, 
    856, 
    857, 
    858, 
    859, 
    860, 
    861, 
    864, 
    866, 
    867, 
    868, 
    869, 
    870, 
    871, 
    872, 
    873, 
    874, 
    875, 
    876, 
    877, 
    880, 
    882, 
    883, 
    884, 
    885, 
    886, 
    887, 
    888, 
    889, 
    890, 
    893, 
    895, 
    896, 
    897, 
    898, 
    899, 
    900, 
    901, 
    902, 
    903, 
    906, 
    908, 
    909, 
    910, 
    911, 
    912, 
    913, 
    914, 
    915, 
    916, 
    919, 
    921, 
    922, 
    923, 
    924, 
    925, 
    926, 
    927, 
    928, 
    929, 
    932, 
    934, 
    935, 
    936, 
    937, 
    938, 
    939, 
    940, 
    941, 
    942, 
    945, 
    947, 
    948, 
    949, 
    950, 
    951, 
    952, 
    953, 
    954, 
    955, 
    956, 
    957, 
    958, 
    959, 
    962, 
    964, 
    965, 
    966, 
    967, 
    968, 
    969, 
    970, 
    971, 
    972, 
    975, 
    977, 
    978, 
    979, 
    980, 
    981, 
    982, 
    983, 
    984, 
    985, 
    988, 
    990, 
    991, 
    992, 
    993, 
    994, 
    995, 
    996, 
    997, 
    998, 
    1001, 
    1003, 
    1004, 
    1005, 
    1006, 
    1007, 
    1008, 
    1009, 
    1010, 
    1011, 
    1014, 
    1016, 
    1017, 
    1018, 
    1019, 
    1020, 
    1021, 
    1022, 
    1023, 
    1024, 
    1027, 
    1029, 
    1030, 
    1031, 
    1032
  ], 
  "heads": [[807, 0, 0]], 
  "attrs": {"mxnet_version": ["int", 10500]}
}